diminutive_generator2.pth (torch, 297735 bytes, 11 tensors)

embedding.weight f4 [53, 64]
0.5159545 -0.73379105 -0.48961127 1.0334402 -1.0247151 -1.3098952 0.6590455 -1.6116328
-0.20692058 0.5695922 2.2940814 0.90962726 -0.048815124 -1.2280567 0.29731414 -2.6194863
0.06736929 -2.029213 1.8915838 -0.00840661 -0.552039 -0.19130482 -0.29734185 0.603056
0.2530701 0.36543152 -0.6855535 -0.577168 1.383339 -0.76687205 0.61184007 -0.5030532
-1.467129 0.78262943 -0.729405 1.1619139 -0.3912321 1.2466896 0.83507913 0.6373987
-2.3660812 0.51358354 -1.4529904 0.29626134 -1.9020602 2.2403364 0.5412899 -0.33239934
-0.42067647 2.5940368 0.4248498 -0.02592626 -0.5770179 1.3514185 0.07034099 1.2173195
-1.8931379 0.26077488 -0.46858275 2.6310449 0.6427824 -1.2485372 -2.163894 0.414166
1.0082353 -0.9879469 0.9935851 -1.5192732 -1.1512054 1.3542571 -3.3707604 -0.09878043
-1.9021012 -1.4034742 0.07043958 0.80342895 2.442364 1.752931 -1.6063095 -1.8995106
0.7040968 -1.2818853 -1.9330647 0.8682493 0.92709696 -0.4910564 -1.2527934 -0.5549423
-0.9735256 0.27281028 1.6332297 -1.3917484 0.06736267 0.89839256 1.8497458 0.13732983
0.7249091 -1.8184857 1.1133671 -0.46145293 0.22919537 1.2929305 -0.044004664 -1.8861297
-1.3452587 -1.6937122 0.99544656 -1.0170723 -0.6796104 -1.4626012 -0.19418561 0.97875094
-0.6920152 -1.3000628 0.8498568 -1.0499696 -0.4060012 -0.34950128 1.4259 1.4992772
2.5626123 -0.27157646 0.27915415 -0.23259778 -0.86457074 -1.6745671 1.1290207 0.10238453
1.0643449 -0.84821874 -0.44090015 0.027311366 -0.14181624 -1.5118387 0.8426258 1.4480761
-0.7587259 -0.66580063 -0.21261784 -0.8275185 1.6062795 0.605787 2.4624374 0.5896443
0.5380608 -0.39149317 -1.3609133 -0.46021962 1.081488 0.24804026 0.86273664 1.4547153
-0.2843567 -0.49224362 0.398601 -0.10028505 0.66647696 1.1802864 2.1353092 0.8525149
1.1091502 -0.40615153 1.4375842 -0.8286838 -0.6203372 1.849399 -2.1117635 -0.929588
1.2839426 2.0051548 1.6069642 0.23182955 0.17621273 1.983257 0.016351756 -2.1453598
0.15376525 2.445465 1.1766998 2.7873282 -0.19222066 1.2323418 0.4201335 0.8376779
-0.5296982 -1.4976426 0.18294579 0.14706822 0.95999306 -0.24091926 -0.4545326 -2.412201
-0.6598015 -0.97493804 -0.81621665 -0.2933239 -1.0788652 -2.2303803 -1.2335935 -1.2515476
0.24590942 0.102371894 2.07693 0.47745088 -0.7154986 -0.5128945 -0.12502737 1.0402882
2.7521906 -1.2086011 -0.5724587 1.0263829 -0.057050485 0.38727713 -0.22774225 -0.1422819
1.5227109 -0.22154117 -0.3374238 -2.1302874 0.4788949 0.63960665 -1.2674994 1.4329227
-1.0021999 -0.7415408 -0.0730515 0.7798498 1.2448756 0.68703604 1.6061766 0.13219562
-1.2078025 2.3373523 1.0026044 1.5616218 0.018299816 2.8380737 0.56077677 0.032637097
-0.6665643 -0.3207944 0.6983813 -0.89669514 -1.1789482 0.113310196 0.664073 2.9277973
1.3362913 -1.6940992 -2.1185296 -0.626458 0.16697754 0.66492844 0.43872494 -1.5253575
00000000: 9815 043f bbd9 3bbf 54ae fabe c547 843f
00000010: dd29 83bf a5aa a7bf 35b7 283f fc49 cebf
00000020: fde2 53be cbd0 113f 3bd2 1240 55dd 683f
00000030: 5ef2 47bd f630 9dbf 8f39 983e aaa5 27c0
00000040: e9f8 893d a0de 01c0 6b1f f23f e1bb 09bc
00000050: 6e52 0dbf 69e5 43be 313d 98be e161 1a3f
00000060: 6792 813e d719 bb3e 6f80 2fbf 48c1 13bf
00000070: 4111 b13f ba51 44bf 8da1 1c3f 18c8 00bf
00000080: e2ca bbbf 675a 483f 49ba 3abf 98b9 943f
00000090: 934f c8be 8693 9f3f bfc7 553f 902c 233f
000000a0: e06d 17c0 367a 033f 97fb b9bf 91af 973e
000000b0: b576 f3bf ac61 0f40 fa91 0a3f 3f30 aabe
000000c0: e862 d7be b304 2640 ea85 d93e 4f63 d4bc
000000d0: 72b7 13bf 48fb ac3f f00e 903d 20d1 9b3f
000000e0: 5852 f2bf 4984 853e 14ea efbe 0a63 2840
000000f0: 638d 243f 11d0 9fbf 3d7d 0ac0 910d d43e
00000100: db0d 813f 17ea 7cbf 985b 7e3f 8b77 c2bf
00000110: b35a 93bf 4c58 ad3f 8aba 57c0 654d cabd
00000120: 0d78 f3bf 0ba5 b3bf a042 903d 85ad 4d3f
00000130: b14f 1c40 0b60 e03f 8d9b cdbf 2a23 f3bf
00000140: b03f 343f d114 a4bf aa6e f7bf 9645 5e3f
00000150: 3a56 6d3f bf6b fbbe 895b a0bf b310 0ebf
00000160: f938 79bf caad 8b3e ac0d d13f d024 b2bf
00000170: 71f5 893d 0efd 653f 78c4 ec3f 31a0 0c3e
00000180: a593 393f 24c4 e8bf d082 8e3f 8f43 ecbe
00000190: 31b2 6a3e bf7e a53f 3c3e 34bd b36c f1bf
000001a0: 7031 acbf 90cb d8bf 96d5 7e3f 6d2f 82bf
000001b0: f2fa 2dbf 8436 bbbf 98d8 46be 6c8f 7a3f
000001c0: e827 31bf 7568 a6bf 3790 593f 6765 86bf
000001d0: 64df cfbe d5f1 b2be e483 b63f 51e8 bf3f
000001e0: d701 2440 120c 8bbe 4bed 8e3e 1d2e 6ebe
000001f0: 8254 5dbf 3758 d6bf c083 903f fbae d13d
00000200: 743c 883f dd24 59bf aabd e1be 16bc df3c
00000210: 4738 11be ee83 c1bf 53b6 573f 8f5a b93f
00000220: dc3b 42bf e971 2abf 7eb8 59be 41d8 53bf
00000230: 919a cd3f db14 1b3f 9398 1d40 eef2 163f
00000240: 5abe 093f cb71 c8be 6832 aebf e8a1 ebbe
00000250: 336e 8a3f 44fe 7d3e 4fdc 5c3f 1c34 ba3f
00000260: 3497 91be 5b07 fcbe 6e15 cc3e 4062 cdbd
00000270: 3c9e 2a3f a013 973f e8a8 0840 6b3e 5a3f
00000280: a2f8 8d3f 18f3 cfbe c202 b83f 9f24 54bf
00000290: 6bce 1ebf 1bb9 ec3f 2227 07c0 7bf9 6dbf
000002a0: 3b58 a43f 7554 0040 01b1 cd3f ba64 6d3e
000002b0: 1c71 343e 5edb fd3f 1ef4 853c 934d 09c0
000002c0: a374 1d3e 8082 1c40 199e 963f 9663 3240
000002d0: 7ed5 44be 60bd 9d3f bd1b d73e 0f72 563f
000002e0: 4d9a 07bf c1b2 bfbf 2456 3b3e 0d99 163e
000002f0: 1bc2 753f 8ab3 76be 7fb8 e8be 8061 1ac0
00000300: c0e8 28bf 8a95 79bf 93f3 50bf 8d2e 96be
00000310: 4118 8abf 8dbe 0ec0 64e6 9dbf b632 a0bf
00000320: aecf 7b3e 5ba8 d13d 6cec 0440 7174 f43e
00000330: eb2a 37bf 0e4d 03bf 2d07 00be 2a28 853f
00000340: e423 3040 71b3 9abf a78c 12bf 8460 833f
00000350: c5ad 69bd 3049 c63e 4435 69be 59b2 11be
00000360: 31e8 c23f b0db 62be d0c2 acbe a156 08c0
00000370: b631 f53e 43bd 233f 6c3d a2bf 036a b73f
00000380: 1648 80bf 9ed5 3dbf 069c 95bd 3da4 473f
00000390: 1558 9f3f 98e1 2f3f 3297 cd3f 4a5e 073e
000003a0: 4699 9abf 2e97 1540 5755 803f 39e3 c73f
000003b0: 7fe9 953c 00a3 3540 118f 0f3f 7aae 053d
000003c0: f5a3 2abf 2a3f a4be 1ec9 323f d08d 65bf
000003d0: c6e7 96bf 2d0f e83d b000 2a3f 0861 3b40
000003e0: 980b ab3f 3ed8 d8bf fd95 07c0 8d5f 20bf
000003f0: 29fc 2a3e c038 2a3f 8ea0 e03e ea3e c3bf

lstm.weight_ih_l0 f4 [256, 64]
-0.13530639 0.11074862 -0.09767185 0.045561012 0.3130028 -0.019918004 0.42024258 0.27449602
-0.24207859 0.2923014 0.0630047 -0.040883385 0.17351516 -0.21119426 0.16529644 -0.21734701
-0.21203165 -0.06619904 -0.18154731 0.13462001 -0.057549004 0.33986092 0.044738866 0.18136638
0.103231326 -0.3875654 -0.2883106 -0.17008145 0.13904601 -0.1668903 0.0009138244 -0.07418277
-0.05229774 -0.1633682 -0.23999482 0.0877244 0.22149876 0.20777531 -0.07167419 -0.10286523
-0.2738757 0.35006312 0.05583144 0.023926947 0.25004646 -0.103333384 -0.26239017 -0.3651934
0.25368962 0.18619911 0.13739645 -0.005669998 0.35155874 0.16121791 0.29115844 -0.0918631
-0.06801844 -0.041423168 0.29388964 0.1931741 0.15916629 -0.34451547 -0.017105278 -0.093313806
-0.08802107 0.045289084 -0.25698432 -0.09027178 0.22161251 0.06481349 0.1149867 0.3478467
-0.20094234 0.32377604 0.0013310486 -0.20303701 0.02578704 0.29390383 -0.09201373 0.027969347
-0.09099554 0.24688672 0.15307619 -0.03511701 0.34715888 0.22895269 0.09578229 0.06363207
0.24443902 -0.07377038 -0.25948933 -0.10730692 0.04533359 0.23389336 -0.063444205 0.08008341
0.09638954 0.070461065 -0.037017617 0.12380997 -0.020698508 0.08142571 0.131538 0.05910921
-0.011054176 0.2065568 0.1625711 0.27516297 -0.05507169 0.17470387 -0.17932619 0.17522807
0.009211503 0.0071650245 0.05525374 0.051135894 0.2419498 0.33090654 0.23936914 -0.03056864
0.18292303 0.027706427 -0.111694045 -0.13050875 0.008694382 -0.05109401 0.2689446 -0.4377376
-0.14549293 0.029655466 -0.2716637 0.17905998 0.07512063 -0.17113468 -0.12439754 0.013579899
-0.32296804 0.18496266 0.075889185 -0.085860625 0.2678528 0.046996042 -0.27671108 -0.2000464
0.26073954 -0.14205359 -0.303714 -0.25731176 0.29618755 0.2043677 0.099273145 -0.09001906
0.054766305 -0.049348056 0.099039294 0.10815991 0.01332898 -0.17119038 0.07817993 -0.33569407
-0.051962186 0.19752306 0.005351884 0.09174546 -0.04723073 0.122814596 -0.0043569375 0.2834288
-0.22040159 -0.08033131 0.22220747 0.09190545 -0.212815 0.21875636 -0.08650633 0.037096534
0.13382162 0.018004863 -0.034145676 0.15341145 -0.18837517 0.12955363 -0.09443869 -0.05570634
0.06287155 -0.15130503 -0.14326452 0.1963682 -0.35733104 -0.0938337 0.3028511 -0.04572221
0.09766274 -0.373277 -0.10887084 -0.06997229 0.13958636 -0.022550803 0.32778102 0.013115301
-0.25361085 0.29835576 0.073416375 0.17708345 -0.13010049 -0.21472849 0.08774609 -0.005655148
0.079498574 0.010624083 0.05530423 0.08853757 0.04055713 0.28144002 0.117188625 -0.12811159
0.15771079 -0.2075316 -0.14184792 -0.17243108 -0.026255047 0.16402484 0.033065937 0.090922736
-0.061077952 -0.19218369 -0.21012335 0.012065368 -0.2631781 0.37266248 0.37932515 -0.058859624
-0.15232824 0.33823553 -0.16873945 0.02966585 0.12142302 0.31574735 -0.22025177 0.32936692
0.14356925 0.050579324 0.3634456 -0.02490384 0.1194071 0.07846057 -0.3286201 0.07425146
-0.0042702644 -0.2830518 -0.27441388 0.32583636 0.013960217 0.087222725 0.161259 -0.0022872798
00000000: c28d 0abe 2cd0 e23d 2e08 c8bd 2f9e 3a3d
00000010: e741 a03e 152b a3bc 092a d73e be8a 8c3e
00000020: 73e3 77be 87a8 953e 9c08 813d 5675 27bd
00000030: f5ad 313e 4f43 58be 7843 293e 3790 5ebe
00000040: d31e 59be 5d93 87bd 8ae7 39be d4d9 093e
00000050: 81b8 6bbd 4002 ae3e 1a40 373d 1cb8 393e
00000060: f26a d33d f96e c6be 729d 93be d529 2ebe
00000070: 1462 0e3e 4ae5 2abe b88d 6f3a 23ed 97bd
00000080: 2836 56bd fe49 27be 34c1 75be daa8 b33d
00000090: 92d0 623e 0dc3 543e ebc9 92bd 01ab d2bd
000000a0: 7039 8cbe 793b b33e 82af 643d 7202 c43c
000000b0: 1706 803e 74a0 d3bd 0158 86be a1fa babe
000000c0: 9be3 813e fbaa 3e3e a8b1 0c3e 64cb b9bb
000000d0: 82ff b33e 4f16 253e b812 953e b922 bcbd
000000e0: 404d 8bbd 57ab 29bd b478 963e 6ecf 453e
000000f0: 7dfc 223e 5564 b0be 5e20 8cbc 4f1b bfbd
00000100: 6444 b4bd 0c81 393d 7393 83be 69e0 b8bd
00000110: 64ee 623e efbc 843d 267e eb3d f618 b23e
00000120: d4c3 4dbe f9c5 a53e 9476 ae3a efe8 4fbe
00000130: 583f d33c 907a 963e b271 bcbd f91f e53c
00000140: df5b babd dfcf 7c3e 01c0 1c3e dbd6 0fbd
00000150: cfbe b13e 9372 6a3e 8129 c43d 8851 823d
00000160: 394e 7a3e ed14 97bd c9db 84be bbc3 dbbd
00000170: b7af 393d be81 6f3e 09ef 81bd c502 a43d
00000180: e167 c53d e44d 903d c99f 17bd 1590 fd3d
00000190: eb8f a9bc 86c2 a63d e6b1 063e 801c 723d
000001a0: 931c 35bc a083 533e 0a79 263e 29e2 8c3e
000001b0: da92 61bd 92e5 323e 49a1 37be fd6e 333e
000001c0: d8eb 163c 95c8 ea3b bf51 623d df73 513d
000001d0: b0c1 773e 956c a93e 2f1d 753e 166b fabc
000001e0: 2d50 3b3e 97f8 e23c d9bf e4bd 16a4 05be
000001f0: e272 0e3c f447 51bd 1bb3 893e 251f e0be
00000200: 19fc 14be 05f0 f23c 8117 8bbe 805b 373e
00000210: d8d8 993d ee3d 2fbe 23c4 febd 3a7e 5e3c
00000220: 115c a5be da66 3d3e ca6b 9b3d b2d7 afbd
00000230: 0124 893e ec7e 403d 13ad 8dbe f7d8 4cbe
00000240: a77f 853e 7f76 11be 6780 9bbe 5ebe 83be
00000250: e5a5 973e c445 513e b84f cb3d ea5b b8bd
00000260: a252 603d 3021 4abd 1dd5 ca3d f182 dd3d
00000270: cb61 5a3c 884c 2fbe cd1c a03d 18e0 abbe
00000280: 4dd6 54bd 7c43 4a3e db5e af3b 0be5 bb3d
00000290: 0375 41bd 3886 fb3d a4c4 8ebb 941d 913e
000002a0: f4b0 61be be84 a4bd 5b8a 633e ed38 bc3d
000002b0: 2dec 59be ab01 603e 3b2a b1bd 89f2 173d
000002c0: 8908 093e ef7e 933c 56dc 0bbd e417 1d3e
000002d0: 6ce5 40be b5a9 043e 1269 c1bd 552c 64bd
000002e0: cdc2 803d b5ef 1abe efb3 12be bf14 493e
000002f0: 18f4 b6be e22b c0bd 4d0f 9b3e 3647 3bbd
00000300: 6703 c83d 2a1e bfbe adf7 debd a24d 8fbd
00000310: baef 0e3e 76bc b8bc ead2 a73e 8fe1 563c
00000320: 48d9 81be 16c2 983e 535b 963d 5d55 353e
00000330: 1039 05be c9e1 5bbe 39b4 b33d d24e b9bb
00000340: 26d0 a23d a210 2e3c b086 623d 2f53 b53d
00000350: 3c1f 263d e818 903e 9700 f03d af2f 03be
00000360: f07e 213e 2a83 54be 9540 11be c691 30be
00000370: d314 d7bc 21f6 273e 2670 073d b335 ba3d
00000380: e02c 7abd cdcb 44be 932a 57be d2ad 453c
00000390: 48bf 86be 9ecd be3e e836 c23e ca16 71bd
000003a0: effb 1bbe 352d ad3e 09ca 2cbe cc05 f33c
000003b0: a2ac f83d a3a9 a13e ae89 61be c8a2 a83e
000003c0: d103 133e 442c 4f3d 8b15 ba3e 2303 ccbc
000003d0: b68b f43d efaf a03d e540 a8be 2611 983d
000003e0: 93ed 8bbb 2aec 90be fa7f 8cbe 06d4 a63e
000003f0: 65b9 643c d4a1 b23d 1421 253e 30e6 15bb

lstm.weight_hh_l0 f4 [256, 64]
-0.072827354 -0.10999106 -0.11324024 0.08416026 0.032746945 0.090907015 -0.052770387 -0.53311306
0.09078706 0.076037005 -0.01712932 0.015068823 -0.19635364 -0.40357825 0.055927463 0.31729364
-0.124037005 0.24802215 0.1077818 -0.032704152 0.060127225 0.14137337 -0.041185416 -0.037417825
-0.036233608 0.07526615 0.08010351 -0.16001453 -0.06377844 -0.033235196 0.26106158 0.0959946
-0.40205574 -0.14072716 -0.22224213 -0.26182702 0.44830337 0.14220282 0.524242 0.06406068
-0.07247953 -0.26127765 0.106336586 0.0199744 0.29329512 0.15919466 0.03064001 -0.16637282
0.31137216 0.018030534 -0.022463795 -0.06973604 -0.19725107 -0.09772486 -0.3112469 -0.111601815
0.26538384 0.2203955 0.15768626 -0.071147576 -0.17312706 -0.19033815 -0.080694936 0.0262995
0.044050623 0.20944153 0.577165 0.31310043 0.34969652 -0.18554454 -0.09861845 -0.43404913
-0.04178617 0.20048784 0.17892167 -0.43149057 -0.18694656 -0.16860372 0.036625955 0.39621177
-0.36618236 0.39144826 0.25206113 -0.084162235 0.026531542 0.37485352 -0.43050712 -0.234338
-0.30315748 0.09513943 -0.25130206 0.047684114 0.4267115 -0.47752216 0.039235316 0.050108694
-0.24840175 0.41016164 -0.77131677 0.082033694 0.32918847 -0.014997131 0.19331548 0.37948453
0.1839795 0.32110557 0.33990285 -0.13976265 -0.14281602 0.028782906 0.18679512 -0.71806544
0.5092096 0.18563175 -0.033139627 -0.16595452 -0.31798005 -0.19979493 -0.032558262 -0.031862218
0.04643342 0.39082974 -0.008211148 0.39911145 -0.10514463 0.050415438 0.15829605 -0.108268894
0.2584659 -0.3207896 -0.1418868 0.085734494 0.47805613 0.020224307 -0.27201876 -0.13248281
-0.28996158 0.012462671 0.35901186 -0.01766221 -0.28280577 -0.124262705 -0.054507934 -0.28582162
-0.033060487 0.22513333 0.042439763 -0.4239873 0.599064 0.086932935 0.12175166 0.30146816
-0.019621424 0.22494653 -0.11630652 0.26282284 0.092531875 -0.40205342 -0.23223406 0.113234945
0.07903463 -0.049721118 -0.17134385 -0.10513238 0.21898545 0.07342994 -0.050585806 0.13294242
0.41096708 0.4336324 0.25424597 0.0061936025 -0.025245104 -0.10943585 0.20132382 -0.3240779
0.0032962277 0.29979914 -0.13791832 -0.20523551 -0.36437693 -0.011305428 -0.21479796 0.13480595
0.103654735 0.08611311 -0.031931855 0.01898315 -0.35760224 -0.13636687 -0.11815822 0.009686826
-0.48629323 -0.22591807 0.31607193 0.16842197 0.07384575 0.33448532 -0.058401704 -0.13428548
-0.3078227 0.1393215 0.123617165 -0.32995805 -0.24257705 -0.24224119 0.2589049 -0.013890759
-0.49391362 0.11589541 -0.00060332206 -0.20740502 0.22120859 0.17618425 0.060999192 -0.0592992
-0.22569634 0.3783222 0.17963144 0.4573724 0.25561538 -0.23118468 0.23899624 0.11613197
-0.22314863 -0.023055825 0.056291044 -0.21027943 0.15712279 0.05575627 0.028117891 0.20077689
0.33861822 0.15664485 0.13797146 0.08183999 0.32214844 0.11255638 0.12879942 -0.11969319
0.3574702 0.32176802 -0.4641161 -0.16404845 -0.20758857 -0.014439893 -0.020605857 -0.28304437
0.24189104 0.094294265 0.34398124 0.1982692 -0.203464 -0.07431821 -0.52143824 0.13794029
00000000: 8226 95bd fe42 e1bd 80ea e7bd 375c ac3d
00000010: a921 063d 752d ba3d c325 58bd 197a 08bf
00000020: 91ee b93d 4ab9 9b3d ca52 8cbc 39e3 763c
00000030: ee10 49be cfa1 cebe 3214 653d 5074 a23e
00000040: 1d07 febd 85f9 7d3e b4bc dc3d caf4 05bd
00000050: f747 763d 2ec4 103e 0ab2 28bd 6f43 19bd
00000060: b169 14bd 2425 9a3d 4f0d a43d d9da 23be
00000070: 459e 82bd a121 08bd dda9 853e d198 c43d
00000080: 40da cdbe c81a 10be 7193 63be 310e 86be
00000090: 0588 e53e 9e9d 113e b934 063f 3f32 833d
000000a0: 2670 94bd 2fc6 85be ffc6 d93d 5aa1 a33c
000000b0: c72a 963e ed03 233e c200 fb3c a35d 2abe
000000c0: 2c6c 9f3e c5b4 933c fe05 b8bc c5d1 8ebd
000000d0: 2ffc 49be f923 c8bd c15b 9fbe 7e8f e4bd
000000e0: 64e0 873e 5caf 613e 8278 213e d2b5 91bd
000000f0: 3848 31be 01e8 42be 6343 a5bd 0d72 d73c
00000100: 6d6e 343d d777 563e 16c1 133f b34e a03e
00000110: 6c0b b33e 63ff 3dbe 78f8 c9bd b03b debe
00000120: fa27 2bbd af4c 4d3e 3e37 373e 55ec dcbe
00000130: eb6e 3fbe 74a6 2cbe 1905 163d 45dc ca3e
00000140: 417c bbbe e86b c83e 280e 813e 405d acbd
00000150: ad58 d93c cdec bf3e 6e6b dcbe 4df6 6fbe
00000160: 7537 9bbe 76d8 c23d aaaa 80be 6b50 433d
00000170: ee79 da3e c97d f4be 36b5 203d c63e 4d3d
00000180: 075d 7ebe b500 d23e 0475 45bf 4801 a83d
00000190: 648b a83e 87b6 75bc 7ef4 453e cc4b c23e
000001a0: 1f65 3c3e f367 a43e bf07 ae3e f11d 0fbe
000001b0: 5d3e 12be 21ca eb3c 3847 3f3e 23d3 37bf
000001c0: 8f5b 023f 4016 3e3e 6bbd 07bd fbef 29be
000001d0: 48ce a2be 0b97 4cbe d05b 05bd f581 02bd
000001e0: f830 3e3d d61a c83e 0d88 06bc 5658 cc3e
000001f0: 1156 d7bd 6b80 4e3d 5c18 223e 15bc ddbd
00000200: a455 843e 893e a4be c64a 11be 9195 af3d
00000210: c6c3 f43e 72ad a53c 0b46 8bbe 93a9 07be
00000220: d875 94be 3b30 4c3c 67d0 b73e 57b0 90bc
00000230: ebcb 90be 727d febd b643 5fbd 3657 92be
00000240: 6f6a 07bd 5a89 663e 51d5 2d3d dd14 d9be
00000250: 425c 193f e509 b23d ef58 f93d 095a 9a3e
00000260: 1cbd a0bc 6258 663e 1d32 eebd b790 863e
00000270: 5a81 bd3d f2d9 cdbe c4ce 6dbe b9e7 e73d
00000280: e8dc a13d 5fa8 4bbd c374 2fbe a54f d7bd
00000290: b93d 603e 7062 963d 1033 4fbd 0f22 083e
000002a0: 476a d23e 1105 de3e 872c 823e b4f3 ca3b
000002b0: d2ce cebc e71f e0bd d527 4e3e 8aed a5be
000002c0: 8605 583b 467f 993e 763a 0dbe 4229 52be
000002d0: 9d8f babe 673a 39bc fff3 5bbe 920a 0a3e
000002e0: ef48 d43d 125c b03d faca 02bd 8d82 9b3c
000002f0: a417 b7be c2a3 0bbe f0fc f1bd 7eb5 1e3c
00000300: 6dfb f8be 1157 67be 2ed4 a13e cf76 2c3e
00000310: 713c 973d a941 ab3e a036 6fbd 2282 09be
00000320: f09a 9dbe 4caa 0e3e ff2a fd3d 43f0 a8be
00000330: 1e66 78be 130e 78be 2f8f 843e 1196 63bc
00000340: 3fe2 fcbe 935a ed3d 4228 1eba fb61 54be
00000350: 8184 623e a569 343e 4ada 793d b8e3 72bd
00000360: f11c 67be 73b3 c13e 4ef1 373e b72c ea3e
00000370: 05e0 823e adbb 6cbe 6ebb 743e 99d6 ed3d
00000380: 1381 64be 92df bcbc 7091 663d 7e53 57be
00000390: cce4 203e b060 643d 7e57 e63c 7598 4d3e
000003a0: 5e5f ad3e 8267 203e 6448 0d3e ba9b a73d
000003b0: a4f0 a43e f683 e63d ffe3 033e b421 f5bd
000003c0: 5606 b73e c7be a43e a0a0 edbe 51fc 27be
000003d0: 1992 54be 4d95 6cbc 9dcd a8bc 31eb 90be
000003e0: 49b2 773e 5a1d c13d 4f1e b03e 1507 4b3e
000003f0: de58 50be 2534 98bd fa7c 05bf 3840 0d3e

lstm.bias_ih_l0 f4 [256]
0.4168414 0.25105482 0.27758017 0.4727923 0.4667911 0.2718874 0.39395207 0.44856095
0.39543188 0.32400298 0.2593058 0.40634966 0.49962285 0.24479067 0.52359366 0.32944655
0.39589033 0.31877798 0.45023584 0.29252478 0.49942058 0.2677647 0.59166265 0.30286434
0.47160283 0.28702343 0.4903797 0.25173885 0.5185175 0.32872993 0.4043183 0.3490416
0.2184935 0.4595978 0.26672587 0.19448279 0.2786776 0.48763603 0.5014221 0.36655727
0.4215114 0.5438338 0.4307545 0.41431952 0.27020195 0.49161994 0.3555997 0.36779818
0.388164 0.41517866 0.40124357 0.34114134 0.38910097 0.3722521 0.5381321 0.29984123
0.55494916 0.2157787 0.41171834 0.49983826 0.36050725 0.30783635 0.1963314 0.41583052
0.12862863 0.0025505607 -0.15776819 -0.043426346 -0.07069425 -0.11024486 0.063038155 -0.10327333
-0.061344355 0.0797163 -0.009594946 0.12173214 -0.010948767 0.055814173 0.12166822 -0.065005474
0.048336815 0.12433119 0.12611842 0.059726655 0.041401964 0.0011152839 0.03330403 -0.13834228
-0.12634185 0.1570204 -0.0094882045 -0.013116577 0.08277692 -0.12632954 -0.04513113 0.05439902
-0.035490543 -0.02418734 -0.040554672 0.14319743 0.04854937 0.022394056 0.07764158 0.037272975
0.14593135 0.26636612 -0.13962811 -0.05159806 0.056385014 0.010796019 0.07672724 0.11424093
-0.0064458353 0.11802319 0.051266976 -0.035335205 -0.010155759 -0.04494394 -0.099717975 -0.0659074
0.0918449 0.12629901 0.05086435 -0.04128455 0.08039062 -0.029662639 -0.054671753 0.1408845
-0.1573581 -0.18187003 0.037878934 0.0019155765 0.0003850936 -0.00362575 -0.076283254 -0.048621427
-0.114348195 0.074051425 0.024827158 -0.24312016 -0.009914574 -0.24018285 0.21928473 -0.03422401
-0.10386148 0.14944297 -0.010914393 -0.23566973 -0.07555302 0.08869134 -0.13805413 0.010680533
-0.11933475 0.20716396 0.031190796 0.14682695 -0.028085127 -0.11963155 0.15726759 0.23776829
-0.16043033 0.0040591597 0.1891313 -0.14841817 0.13711989 0.022031337 -0.07286873 0.18918063
0.029325275 0.008078896 -0.0682628 -0.052852448 0.16814788 -0.051685 0.06854337 0.0058177076
0.050469793 0.043328933 -0.249833 0.031230858 0.048356794 -0.019451952 -0.2444365 -0.093577534
0.22493994 0.08047381 0.15132579 0.09046501 -0.08131525 0.008517787 -0.20372221 0.1696627
0.25863162 0.17760311 0.2898644 0.3282246 0.5586882 0.24243058 0.37185925 0.34350446
0.2859209 0.16881633 0.3946079 0.3228829 0.33247617 0.31823355 0.31172714 0.40817368
0.3864448 0.253119 0.28001177 0.48394766 0.25059995 0.468776 0.23882186 0.28767192
0.38994122 0.3319275 0.42663202 0.29154408 0.40577856 0.60660195 0.32771808 0.19581717
0.14114338 0.37417397 0.43803462 0.31397998 0.3375341 0.68770725 0.16521396 0.4283044
0.27327004 0.4759371 0.32059467 0.40785062 0.2968499 0.42921183 0.41949853 0.42866737
0.5337128 0.43703413 0.24554218 0.44622517 0.36308473 0.3366451 0.52355385 0.509911
0.20528895 0.14699832 0.3600881 0.4614745 0.31075928 0.41545564 0.3905464 0.37758768
00000000: 3c6c d53e 428a 803e fd1e 8e3e d511 f23e
00000010: 3eff ee3e d334 8b3e 16b4 c93e c8a9 e53e
00000020: 0c76 ca3e b8e3 a53e bbc3 843e 100d d03e
00000030: 91ce ff3e 68aa 7a3e 3c0a 063f 38ad a83e
00000040: 23b2 ca3e de36 a33e 5085 e63e cfc5 953e
00000050: 0eb4 ff3e 7418 893e 3477 173f 0911 9b3e
00000060: ed75 f13e bcf4 923e 0c13 fb3e eae3 803e
00000070: 90bd 043f 4a4f a83e cf02 cf3e 95b5 b23e
00000080: c3bc 5f3e 6750 eb3e 4b90 883e 7f26 473e
00000090: d5ae 8e3e 6eab f93e 335d 003f 65ad bb3e
000000a0: 58d0 d73e b138 0b3f db8b dc3e b021 d43e
000000b0: e957 8a3e 9cb5 fb3e 2a11 b63e 0b50 bc3e
000000c0: 6fbd c63e 4c92 d43e cc6f cd3e 14aa ae3e
000000d0: 3e38 c73e d497 be3e 06c3 093f ca84 993e
000000e0: 2611 0e3f 17f5 5c3e bfcc d23e cdea ff3e
000000f0: 6894 b83e ba9c 9d3e 190b 493e bde7 d43e
00000100: 39b7 033e 4f27 273b fc8d 21be d3df 31bd
00000110: 26c8 90bd 0fc8 e1bd 261a 813d f880 d3bd
00000120: 3844 7bbd 4d42 a33d 1f34 1dbc b34e f93d
00000130: 7562 33bc 679d 643d 302d f93d 9721 85bd
00000140: d3fc 453d 5aa1 fe3d 3025 013e f0a3 743d
00000150: 1b95 293d b82e 923a ce69 083d 99a9 0dbe
00000160: c25f 01be f5c9 203e 6a74 1bbc e9e6 56bc
00000170: f286 a93d 885c 01be 6bdb 38bd 82d1 5e3d
00000180: 885e 11bd 8724 c6bc a81c 26bd 59a2 123e
00000190: b4db 463d bd73 b73c 8c02 9f3d 8cab 183d
000001a0: 076f 153e 2461 883e acfa 0ebe 7d58 53bd
000001b0: f9f3 663d c9e1 303c 2c23 9d3d 26f7 e93d
000001c0: 9637 d3bb 24b6 f13d 52fd 513d a6bb 10bd
000001d0: 5764 26bc 2317 38bd f038 ccbd 75fa 86bd
000001e0: 2e19 bc3d 8754 013e 2357 503d fd19 29bd
000001f0: d6a3 a43d 10ff f2bc 7def 5fbd 0744 103e
00000200: 7b22 21be 233c 3abe f126 1b3d 1514 fb3a
00000210: 63e6 c939 fe9d 6dbb 653a 9cbd 4327 47bd
00000220: 632f eabd 46a8 973d 5362 cb3c 7ef4 78be
00000230: bd70 22bc 7ef2 75be 2d8c 603e 7a2e 0cbd
00000240: 54b5 d4bd 9407 193e 48d2 32bc 6853 71be
00000250: 8bbb 9abd cea3 b53d 105e 0dbe 67fd 2e3c
00000260: c765 f4bd ca22 543e d783 ff3c ce59 163e
00000270: c812 e6bc 6301 f5bd c10a 213e 8879 733e
00000280: d947 24be b302 853b a3ab 413e effa 17be
00000290: 2869 0c3e 107b b43c 333c 95bd 91b8 413e
000002a0: 8f3b f03c 595d 043c 5ecd 8bbd cf7b 58bd
000002b0: f52e 2c3e a7b3 53bd 7760 8c3d 78a2 be3b
000002c0: 6ab9 4e3d ae79 313d 39d4 7fbe dbd7 ff3c
000002d0: c611 463d b359 9fbc 904d 7abe 94a5 bfbd
000002e0: a856 663e 74cf a43d 26f5 1a3e b845 b93d
000002f0: 9c88 a6bd 308e 0b3c 8e9c 50be 0fbc 2d3e
00000300: 5d6b 843e 97dd 353e 1b69 943e 0e0d a83e
00000310: 3106 0f3f b93f 783e 5664 be3e d1df af3e
00000320: 3964 923e 30de 2c3e 0c0a ca3e e850 a53e
00000330: 513a aa3e 82ef a23e b39a 9f3e 24fc d03e
00000340: 18dc c53e d098 813e b45d 8f3e fdc7 f73e
00000350: a34e 803e 6803 f03e b88d 743e bc49 933e
00000360: 60a6 c73e 67f2 a93e 836f da3e 4445 953e
00000370: 35c2 cf3e 444a 1b3f aaca a73e 4c84 483e
00000380: e487 103e bb93 bf3e 1346 e03e fcc1 a03e
00000390: 45d1 ac3e 950d 303f d92d 293e b74a db3e
000003a0: 0dea 8b3e 07ae f33e fc24 a43e ccd1 d03e
000003b0: b6fc 973e a7c1 db3e 83c8 d63e 4a7a db3e
000003c0: 67a1 083f f0c2 df3e 696f 7b3e a077 e43e
000003d0: 3ee6 b93e bf5c ac3e a007 063f 8789 023f
000003e0: 4437 523e ba86 163e 785d b83e 6346 ec3e
000003f0: d71b 9f3e 9ab6 d43e b3f5 c73e 2c53 c13e

lstm.bias_hh_l0 f4 [256]
0.26616228 0.21895312 0.29613695 0.51792353 0.29787982 0.3566834 0.43862253 0.31076378
0.40104622 0.40116286 0.25616822 0.45201635 0.4647732 0.24237177 0.40590167 0.40089172
0.38075373 0.4190411 0.6029962 0.33482715 0.41739333 0.40726942 0.43609506 0.2881839
0.41931227 0.28517836 0.34094167 0.24109921 0.5471262 0.30105925 0.37061504 0.39904848
0.082762636 0.33058771 0.20839007 0.3296932 0.3271233 0.37474358 0.49836585 0.33879736
0.45883238 0.3943154 0.3149996 0.4500416 0.2206037 0.3854183 0.49055034 0.27929357
0.42032662 0.60717183 0.4908378 0.46487904 0.37475646 0.33527827 0.5562575 0.20567963
0.4224827 0.2271341 0.43568012 0.32120723 0.24951388 0.45810235 0.26484418 0.4439638
0.13339673 -0.053950336 -0.21185726 0.13248721 0.056374457 0.033760477 0.005638423 -0.059140436
-0.093878895 0.00677438 -0.105172776 0.0018241392 0.0218139 0.014333379 0.22110255 -0.03763482
0.14375418 0.02887933 0.098717146 0.0049226913 0.013786107 0.09925715 -0.037139997 -0.084056154
-0.020610776 0.019735796 0.044173095 0.0730408 0.13458025 -0.146256 0.039614286 -0.033668093
0.11511942 -0.17615698 -0.21201439 0.008329203 -0.024180332 -0.0038610825 -0.10842322 0.123764895
-0.05436583 0.17596012 -0.07103884 0.07576026 0.009428992 -0.059561674 0.13003425 0.13013738
-0.04669038 -0.0052047223 0.068836674 -0.03926616 -0.1392598 -0.05367187 0.049549133 0.027827505
0.023516292 0.14629006 -0.0923722 -0.10233701 0.11356026 -0.20450123 -0.035070296 0.09819957
-0.21246277 -0.14465879 0.1444444 0.0140218735 0.13176756 0.10195454 -0.12522179 -0.06633928
-0.18152507 0.062028296 0.08616316 -0.05834483 -0.08615284 -0.20421278 0.24915616 0.01319081
-0.1410409 0.19573963 0.025228018 -0.15374976 0.12835294 0.060824923 -0.032673102 -0.077164896
-0.17888644 0.21066463 0.061013594 0.14763966 0.18033008 -0.17237046 0.1970235 0.120562166
-0.15346308 0.04841939 -0.035154443 -0.15995435 0.15383574 0.02982808 0.06966659 0.10452022
0.15928388 0.123581685 0.16312528 -0.055964556 0.06367688 -0.06448004 0.21273917 -0.009546392
-0.013387361 0.14443369 -0.19033162 -0.1377597 0.041796736 0.045310747 -0.21647042 0.04178549
0.119467966 0.1403772 0.1612007 0.1058979 -0.10771385 0.061210528 -0.25052738 -0.0030535762
0.15183094 0.16935621 0.2935343 0.18981326 0.3570219 0.20401837 0.368505 0.31750616
0.37751803 0.19901729 0.39585328 0.33171314 0.37972656 0.5166262 0.45895007 0.45250493
0.3100214 0.2816279 0.24181706 0.4583175 0.35424158 0.42845356 0.4694921 0.40508372
0.4349512 0.26096252 0.41663238 0.38731176 0.45529816 0.44438258 0.36023837 0.3283065
0.23590592 0.4110975 0.37730482 0.33021176 0.39969948 0.5213619 0.32584468 0.273118
0.27243933 0.5097734 0.40155202 0.39883703 0.28570837 0.4580516 0.5233935 0.39372277
0.4451082 0.37154454 0.26159605 0.46296066 0.4321053 0.16609421 0.44556424 0.5180817
0.22953838 0.2544573 0.26953185 0.41149065 0.3935673 0.5716651 0.31938538 0.2570778
00000000: 6c46 883e 3f35 603e 439f 973e a396 043f
00000010: b483 983e 359f b63e 2293 e03e 6e1c 9f3e
00000020: ee55 cd3e 3865 cd3e 7b28 833e b06e e73e
00000030: c1f6 ed3e 4e30 783e 58d2 cf3e ae41 cd3e
00000040: 27f2 c23e 8e8c d63e f55d 1a3f 776e ab3e
00000050: 94b4 d53e 9e85 d03e da47 df3e d78c 933e
00000060: 19b0 d63e e602 923e e88f ae3e b6e2 763e
00000070: 7610 0c3f 7024 9a3e 41c1 bd3e 1550 cc3e
00000080: 757f a93d cb42 a93e 3564 553e 8ccd a83e
00000090: b57c a73e 64de bf3e cf29 ff3e d976 ad3e
000000a0: 14ec ea3e b5e3 c93e a147 a13e da6b e63e
000000b0: f0e5 613e 8c55 c53e 6a29 fb3e 91ff 8e3e
000000c0: 0d35 d73e 9d6f 1b3f 184f fb3e a004 ee3e
000000d0: 14e0 bf3e 98a9 ab3e e466 0e3f ae9d 523e
000000e0: a74f d83e d795 683e 7711 df3e 4675 a43e
000000f0: 9180 7f3e 648c ea3e a899 873e 394f e33e
00000100: 2799 083e 07fb 5cbd 1cf1 58be baaa 073e
00000110: e7e8 663d 6d48 0a3d 85c2 b83b 3e3d 72bd
00000120: 9443 c0bd 9efb dd3b d364 d7bd f417 ef3a
00000130: 10b3 b23c 8dd6 6a3c b568 623e f826 1abd
00000140: 4c34 133e 5894 ec3c 372c ca3d 874e a13b
00000150: 20df 613c 5547 cb3d 1c20 18bd a225 acbd
00000160: eed7 a8bc f7ac a13c d9ee 343d 6a96 953d
00000170: 68cf 093e 22c4 15be 9742 223d 8ee7 09bd
00000180: bbc3 eb3d 7f62 34be 4d1a 59be 3677 083c
00000190: d515 c6bc 370a 7dbb fe0c debd 7378 fd3d
000001a0: b4ae 5ebd e42e 343e d07c 91bd 3228 9b3d
000001b0: 0f7c 1a3c f1f6 73bd b327 053e bc42 053e
000001c0: 693e 3fbd 608c aabb 3efa 8c3d 8ed5 20bd
000001d0: 1f9a 0ebe 09d7 5bbd 08f4 4a3d 82f6 e33c
000001e0: 3da5 c03c 10cd 153e a32d bdbd 1196 d1bd
000001f0: 4892 e83d c568 51be dfa5 0fbd db1c c93d
00000200: d78f 59be 6f21 14be 3ce9 133e 00bc 653c
00000210: 13ee 063e 8bcd d03d 243a 00be e3dc 87bd
00000220: b5e1 39be 6211 7e3d 5076 b03d fdfa 6ebd
00000230: e670 b0bd 281d 51be cb22 7f3e 441e 583c
00000240: 076d 10be f86f 483e fdaa ce3c 9470 1dbe
00000250: f46e 033e 8e23 793d 3bd4 05bd a108 9ebd
00000260: 022e 37be 78b8 573e 64e9 793d da2e 173e
00000270: 73a8 383e e281 30be 87c0 493e 4ce9 f63d
00000280: 6d25 1dbe 6953 463d 1bfe 0fbd 13cb 23be
00000290: 1e87 1d3e 055a f43c 5bad 8e3d b20e d63d
000002a0: 501b 233e 6518 fd3d 500a 273e 173b 65bd
000002b0: 0669 823d 1c0e 84bd 4cd8 593e 7868 1cbc
000002c0: a956 5bbc 6de6 133e 4be6 42be e110 0dbe
000002d0: 0e33 2b3d c397 393d 6caa 5dbe 4327 2b3d
000002e0: 9fab f43d 0abf 0f3e cc11 253e 00e1 d83d
000002f0: 1499 dcbd e4b7 7a3d 2045 80be 821e 48bb
00000300: 9279 1b3e b76b 2d3e 214a 963e 685e 423e
00000310: 93cb b63e 31ea 503e b0ac bc3e 2b90 a23e
00000320: 0b4a c13e 30cb 4b3e 48ad ca3e 4ed6 a93e
00000330: 856b c23e 9d41 043f 81fb ea3e baae e73e
00000340: 20bb 9e3e 8831 903e e49e 773e 97a8 ea3e
00000350: 275f b53e 445e db3e 4561 f03e 2267 cf3e
00000360: ecb1 de3e e19c 853e d750 d53e ba4d c63e
00000370: d71c e93e 1d86 e33e 2a71 b83e ca17 a83e
00000380: 5291 713e 5f7b d23e 192e c13e 8411 a93e
00000390: 69a5 cc3e f977 053f 1dd5 a63e 1fd6 8b3e
000003a0: 2b7d 8b3e 8280 023f 3a98 cd3e 5e34 cc3e
000003b0: 5e48 923e bd85 ea3e 1efd 053f 0896 c93e
000003c0: 39e5 e33e 163b be3e ebef 853e 2e09 ed3e
000003d0: e83c dd3e 9a14 2a3e ff20 e43e 01a1 043f
000003e0: 1c0c 6b3e 3a48 823e 1400 8a3e e7ae d23e
000003f0: a781 c93e a558 123f 7b86 a33e b49f 833e

lstm.weight_ih_l1 f4 [256, 64]
-0.45388526 -0.36218512 0.0058644023 -0.03478734 0.3235102 0.4306823 -0.11774303 -0.17881039
-0.3926182 -0.08872108 -0.1766425 0.02238735 -0.08300254 -0.3088459 0.45084926 0.006210628
-0.051917344 0.0043957266 0.34733814 -0.34121525 0.05799216 0.032073148 0.181657 0.039592993
-0.68964076 0.66838837 0.12808734 0.20584379 0.5233286 -0.15365714 0.18100102 0.7508326
-0.44682905 0.20370206 -0.0056972 -0.029401971 0.062339794 0.4102193 -0.06551377 0.1829371
0.7547923 0.50048715 0.44819883 0.22220945 0.34324726 -0.09329011 -0.04566161 -0.24307989
0.16988109 0.10885143 -0.15689424 -0.437825 0.0006002042 -0.14024927 -0.27607083 -0.022271857
0.24441896 -0.036256768 0.5846841 0.15966238 -0.3459284 -0.120498665 -0.49113527 0.41174364
0.060757477 -0.07293492 -0.040494442 -0.18240938 -0.25480455 0.7413402 -0.3696629 -0.5066634
-0.6226665 -0.374344 -0.15944688 -0.25403517 -0.08537681 -0.01787273 0.086224996 -0.024564305
-0.2547602 -0.23551792 0.07558468 -0.46338075 0.49476126 -0.07656213 -0.27798685 -0.09706011
-0.33172864 0.29872304 -0.22944377 0.46924615 0.2651382 -0.504842 0.5519849 0.40968674
-0.2828369 0.20263208 -0.25672314 -0.09296602 0.13817917 0.19806696 0.025638854 -0.09773764
0.52953696 0.30061418 0.06166942 0.023982137 0.45962217 -0.08687146 0.22410187 0.29274604
0.058701575 0.46458864 -0.22793078 -0.52776283 -0.034388904 -0.0047976878 -0.47438496 -0.1497471
0.058401797 0.22877939 0.26419798 0.317454 -0.11065186 -0.48093215 -0.55530363 0.43098176
-0.2675305 -0.54326826 0.57818615 0.23064348 0.51384115 0.17557974 -0.48021072 -0.21748291
-0.18097237 -0.084361054 0.079097554 -0.2631407 -0.41836274 -0.42875633 0.5791682 -0.11421979
-0.2230709 0.14251782 0.24061127 -0.47524774 0.10902545 0.346184 -0.30266553 0.07314835
-0.4965441 0.3777859 -0.09865821 0.44427645 0.667668 -0.48747164 0.20797676 0.45474532
-0.36259976 -0.13186488 -0.17807303 -0.4298806 0.29493853 0.6033018 0.087902255 0.37602368
0.41423863 0.6713491 0.42367536 -0.10935385 0.33480772 0.29823443 0.33998752 -0.49915037
0.41718793 0.32661352 -0.5993413 -0.37956023 -0.340394 -0.19983178 -0.56321675 -0.35102713
0.3691928 0.43395215 0.5479228 0.5303667 -0.4813077 -0.025903115 -0.45963597 0.52873033
-0.32619572 -0.16032189 0.10876528 -0.10501161 0.23012157 0.5426372 -0.108254254 -0.55421746
-0.5012698 0.103959166 0.03252596 -0.48318687 -0.41302407 -0.21870153 0.15854782 -0.16870989
-0.30056214 -0.075403206 -0.15413645 -0.21805032 0.28989756 0.04394506 -0.46525487 -0.3881959
-0.45562494 0.22045806 -0.22932142 0.30196443 0.25513032 -0.3360428 0.513157 0.852483
-0.52512217 0.08285424 -0.2992071 -0.07963515 -0.17371827 -0.07486955 0.28121066 0.4034578
0.37765214 0.24881275 0.20847738 0.123601474 0.26005483 -0.2915022 0.25740668 -0.09210611
0.24132419 0.25423303 -0.28296682 -0.6199501 -0.29728574 -0.19361608 -0.455686 -0.3040953
0.3134242 0.40407115 0.31767237 0.099625446 -0.27383316 -0.279528 -0.5926791 0.31365642
00000000: a663 e8be 5470 b9be 2c2a c03b 2b7d 0ebd
00000010: 21a3 a53e 6482 dc3e 4223 f1bd 121a 37be
00000020: 4105 c9be 66b3 b5bd c6e1 34be ad65 b73c
00000030: 3cfd a9bd 0d21 9ebe b7d5 e63e 8682 cb3b
00000040: 48a7 54bd 070a 903b 4ed6 b13e c4b3 aebe
00000050: 3089 6d3d 225f 033d 4b04 3a3e 432c 223d
00000060: 4c8c 30bf 801b 2b3f 5429 033e b7c8 523e
00000070: ddf8 053f 4c58 1dbe 5558 393e 9136 403f
00000080: c7c6 e4be 4697 503e 94af babb 67dc f0bc
00000090: 0358 7f3d 4408 d23e 152c 86bd dd53 3b3e
000000a0: 113a 413f ed1f 003f 517a e53e e08a 633e
000000b0: 1bbe af3e e30e bfbd ab07 3bbd efe9 78be
000000c0: 4ff5 2d3e 80ed de3d e2a8 20be 992a e0be
000000d0: 0657 1d3a 819d 0fbe 2859 8dbe 7873 b6bc
000000e0: f748 7a3e fa81 14bd dbad 153f 897e 233e
000000f0: 871d b1be 01c8 f6bd 1576 fbbe 10d0 d23e
00000100: d5dc 783d e75e 95bd 80dd 25bd 86c9 3abe
00000110: be75 82be 79c8 3d3f 7544 bdbe b1b4 01bf
00000120: 1267 1fbf 04aa bfbe 0b46 23be e610 82be
00000130: 09da aebd d569 92bc bb96 b03d 153b c9bc
00000140: ee6f 82be 9c2b 71be 24cc 9a3d 3e40 edbe
00000150: 5951 fd3e 9bcc 9cbd 4b54 8ebe 73c7 c6bd
00000160: 56d8 a9be 3af2 983e 4ff3 6abe 0841 f03e
00000170: 32c0 873e 533d 01bf e24e 0d3f 76c2 d13e
00000180: 00d0 90be c97e 4f3e 3771 83be f864 bebd
00000190: d77e 0d3e 11d2 4a3e 9308 d23c ac2a c8bd
000001a0: bc8f 073f 1aea 993e 1399 7c3d 3076 c43c
000001b0: 9953 eb3e aae9 b1bd f67a 653e cfe2 953e
000001c0: 1071 703d 90de ed3e b066 69be 771b 07bf
000001d0: 61db 0cbd ec35 9dbb 96e2 f2be 4e57 19be
000001e0: b936 6f3d 2545 6a3e f544 873e 5589 a23e
000001f0: 719d e2bd bd3c f6be 6128 0ebf a4a9 dc3e
00000200: c2f9 88be a113 0bbf 0204 143f ce2d 6c3e
00000210: 188b 033f 2dcb 333e 2ede f5be d7b3 5ebe
00000220: d250 39be 7dc5 acbd e6fd a13d 61ba 86be
00000230: a433 d6be f385 dbbe 5e44 143f 11ec e9bd
00000240: b36c 64be 31f0 113e cd62 763e ac53 f3be
00000250: bc48 df3d 073f b13e faf6 9abe cdce 953d
00000260: 073b febe 276d c13e 510d cabd 3478 e33e
00000270: 4aec 2a3f e295 f9be dcf7 543e 61d4 e83e
00000280: ada6 b9be 9607 07be c758 36be 4f19 dcbe
00000290: 2f02 973e fd71 1a3f 1906 b43d 2d86 c03e
000002a0: 1617 d43e 89dd 2b3f faeb d83e e9f4 dfbd
000002b0: eb6b ab3e 2fb2 983e d812 ae3e a390 ffbe
000002c0: a899 d53e e339 a73e 6e6e 19bf b855 c2be
000002d0: 1f48 aebe b4a0 4cbe f92e 10bf d4b9 b3be
000002e0: d706 bd3e fa2e de3e ab44 0c3f 1dc6 073f
000002f0: f66d f6be c532 d4bc 6855 ebbe df5a 073f
00000300: 2003 a7be 6c2b 24be 55c0 de3d 5410 d7bd
00000310: fda4 6b3e 46ea 0a3f 68b4 ddbd 32e1 0dbf
00000320: 3853 00bf 8be8 d43d f139 053d 4564 f7be
00000330: e477 d3be 4bf3 5fbe 5c5a 223e 49c2 2cbe
00000340: 48e3 99be ff6c 9abd f2d5 1dbe 9548 5fbe
00000350: 746d 943e bcff 333d e335 eebe 9dc1 c6be
00000360: ac47 e9be c2bf 613e 3cd3 6abe 159b 9a3e
00000370: 71a0 823e cd0d acbe 425e 033f 533c 5a3f
00000380: 686e 06bf 7caf a93d ac31 99be c117 a3bd
00000390: 34e3 31be 3555 99bd d8fa 8f3e 0592 ce3e
000003a0: 9f5b c13e c5c8 7e3e 187b 553e c522 fd3d
000003b0: e825 853e c73f 95be cfca 833e 21a2 bcbd
000003c0: b01d 773e d52a 823e 07e1 90be 0db5 1ebf
000003d0: d635 98be 4b43 46be ad4f e9be 61b2 9bbe
000003e0: 2379 a03e 6ae2 ce3e f4a5 a23e 6d08 cc3d
000003f0: dc33 8cbe 4b1e 8fbe d1b9 17bf 9397 a03e

lstm.weight_hh_l1 f4 [256, 64]
0.084722 -0.18890335 -0.19608124 -0.288383 -0.24378619 -0.20846374 0.44407615 -0.083139874
-0.0415544 -0.30358887 -0.1433497 0.05026509 0.10721254 -0.04070615 -0.092842355 -0.30425534
0.013301013 0.13915277 -0.010793704 -0.23332945 0.055534452 0.2592226 0.39135626 0.099300236
0.005729476 -0.14996204 0.023351874 0.16388538 -0.00016917245 -0.10702395 0.10247237 -0.16376817
-0.37269533 -0.06979296 0.16268331 0.58510125 0.09513377 0.22610961 0.2781428 0.036095995
-0.12955534 0.07060301 0.00078118464 -0.31847998 0.17567363 0.1978058 0.147431 -0.121502936
0.075937875 0.0011294008 0.11449228 -0.321832 -0.045189448 -0.08666755 0.0021279163 0.07096792
-0.19839665 -0.15720282 0.063668795 -0.13708027 -0.18908533 0.09765916 0.07571403 -0.37393135
0.09087829 -0.07450658 -0.19040827 -0.17609236 -0.17026861 0.013623228 -0.27336368 -0.38142422
0.1623536 0.06450117 -0.023805382 0.12890072 0.47357944 -0.07029867 0.15573128 0.02815331
-0.09500726 -0.24492371 -0.09243612 -0.40445992 -0.38436806 0.08932882 0.021762801 -0.016944801
0.014130972 0.21442218 0.05760879 0.008679691 -0.17177133 0.2602927 -0.023827871 0.4570153
-0.1027847 -0.0040152245 -0.37913147 -0.16192031 -0.13097753 0.013105558 -0.26741382 -0.37717777
-0.30621606 -0.08171079 -0.05583222 0.009259622 0.063791506 -0.016773337 -0.021092027 -0.16680688
0.052163903 -0.030361472 0.010890408 -0.279054 0.081791446 0.05240725 -0.09692047 -0.17733759
0.099002056 -0.44032228 -0.060334116 0.11987833 0.00938837 0.21687734 0.05964219 0.16892089
0.1803557 -0.39396343 -0.40764445 -0.046040915 -0.2783177 -0.4375122 0.0006707704 0.088634446
0.21276663 0.11739805 -0.02237318 -0.10293739 0.5770321 -0.085825324 -0.34696233 0.01005914
-0.025779776 -0.23620357 0.028026694 -0.55351526 0.035918903 -0.052428022 -0.0017729554 0.003547275
-0.06801833 -0.06964639 -0.38269567 -0.011850153 -0.2483371 -0.24057667 -0.16647476 0.3699331
0.0304087 0.14676379 -0.09524091 0.21462552 -0.2908903 0.33519438 -0.21097857 -0.2926405
-0.09368632 -0.028124034 0.021215692 -0.13478728 0.2041522 0.1826424 -0.308429 -0.21709715
-0.09228573 0.076233126 0.17491156 -0.029057402 -0.046225462 0.0025358906 0.1626497 -0.3094735
-0.09064181 -0.07144832 -0.059442475 0.0103190215 0.14378221 0.21646893 0.011316989 -0.18420504
0.10816976 -0.10491538 -0.033403076 -0.021644672 -0.05791245 -0.32764286 -0.20417954 -0.19509104
0.09888623 -0.5088647 -0.19743425 -0.3300095 0.18503161 0.056413602 -0.26871145 -0.20664535
-0.02209628 -0.30551952 0.16893245 0.30799577 -0.34820852 0.03881552 -0.1796884 -0.14667493
-0.019541191 0.06083403 -0.015480446 0.10110852 0.41911358 0.09483445 0.20241463 -0.122594014
-0.21340325 0.018861668 -0.08661878 0.024191454 0.016847843 0.11890768 -0.50088143 0.17005296
0.030887345 0.33999997 0.0077745705 0.06912474 -0.059587765 -0.16330542 -0.41879815 -0.09279317
0.17744948 0.16058096 0.07991975 0.04641926 0.13053142 -0.06882981 0.039890382 0.33301547
-0.16679043 -0.11572717 0.016794877 -0.13241749 -0.03621083 -0.18833445 0.007121219 0.15756936
00000000: ba82 ad3d e16f 41be 85c9 48be f0a6 93be
00000010: 16a3 79be 8577 55be f35d e33e 3d45 aabd
00000020: f234 2abd 0070 9bbe 44ca 12be c4e2 4d3d
00000030: 4092 db3d 7ebb 26bd 2224 bebd 5bc7 9bbe
00000040: 7eec 593c 107e 0e3e 13d8 30bc eaed 6ebe
00000050: 1878 633d d3b8 843e d95f c83e ec5d cb3d
00000060: 54be bb3b a68f 19be 6e4c bf3c 92d1 273e
00000070: e263 31b9 5f2f dbbd 09dd d13d d8b2 27be
00000080: ecd1 bebe 9def 8ebd 7496 263e 32c9 153f
00000090: 7ed5 c23d 4789 673e bc68 8e3e 65d9 133d
000000a0: 28aa 04be 5098 903d 6ac8 4c3a cf0f a3be
000000b0: cae3 333e 9b8d 4a3e 27f8 163e 88d6 f8bd
000000c0: 5185 9b3d 6708 943a ee7a ea3d 2ac7 a4be
000000d0: 9218 39bd c27e b1bd 8374 0b3b a157 913d
000000e0: 7e28 4bbe c7f9 20be c964 823d c55e 0cbe
000000f0: 969f 41be 8701 c83d f50f 9b3d ee73 bfbe
00000100: 661e ba3d e896 98bd 63fa 42be 8e51 34be
00000110: e55a 2ebe f633 5f3c 53f6 8bbe 094a c3be
00000120: 0640 263e 3019 843d 8103 c3bc 8dfe 033e
00000130: 0179 f23e c0f8 8fbd 0578 1f3e c5a1 e63c
00000140: 2b93 c2bd 48cd 7abe 264f bdbd 5f15 cfbe
00000150: e4cb c4be 07f2 b63d e747 b23c d3cf 8abc
00000160: 9885 673c 7d91 5b3e 32f7 6b3d 4335 0e3c
00000170: d3e4 2fbe 1645 853e ab32 c3bc e9fd e93e
00000180: c980 d2bd 2592 83bb 851d c2be 70ce 25be
00000190: f91e 06be b2b8 563c 77ea 88be 721d c1be
000001a0: 5ac8 9cbe fd57 a7bd 53b0 64bd abb5 173c
000001b0: 1fa5 823d 3d68 89bc 30c9 acbc 6ccf 2abe
000001c0: d1a9 553d 9fb8 f8bc af6d 323c 2ae0 8ebe
000001d0: 4682 a73d fca8 563d 3d7e c6bd fc97 35be
000001e0: 97c1 ca3d ec71 e1be e820 77bd c582 f53d
000001f0: aed1 193c 1815 5e3e 5e4b 743d 99f9 2c3e
00000200: 2aaf 383e 93b5 c9be c6b6 d0be 6695 3cbd
00000210: a87f 8ebe 9901 e0be a4d6 2f3a fa85 b53d
00000220: 7fdf 593e 646e f03d f647 b7bc d7d0 d2bd
00000230: 60b8 133f 30c5 afbd 0ca5 b1be 17cf 243c
00000240: 1c30 d3bc 59df 71be 3d98 e53c 2db3 0dbf
00000250: b31f 133d c4be 56bd 8362 e8ba 6679 683b
00000260: 324d 8bbd c4a2 8ebd b0f0 c3be 2527 42bc
00000270: 154c 7ebe bb59 76be 5c78 2abe df67 bd3e
00000280: ab1b f93c 3f49 163e ab0d c3bd cbc6 5b3e
00000290: 93ef 94be 999e ab3e c40a 58be fad4 95be
000002a0: 9dde bfbd 6064 e6bc 88cc ad3c ad05 0abe
000002b0: 460d 513e 9c06 3b3e 68ea 9dbe b74e 5ebe
000002c0: 4d00 bdbd 1d20 9c3d 041c 333e ca09 eebc
000002d0: e956 3dbd 2f31 263b a58d 263e 5073 9ebe
000002e0: 6aa2 b9bd 7f53 92bd f479 73bd 1d11 293c
000002f0: a53b 133e 08aa 5d3e e46a 393c 3fa0 3cbe
00000300: 1b88 dd3d e0dd d6bd aad1 08bd 2b50 b1bc
00000310: 9b35 6dbd cec0 a7be 7114 51be f2c5 47be
00000320: dd84 ca3d f544 02bf 342c 4abe 01f7 a8be
00000330: ed78 3d3e f311 673d 8c94 89be d79a 53be
00000340: 4203 b5bc 0e6d 9cbe a1fc 2c3e 9fb1 9d3e
00000350: 6348 b2be 06fd 1e3d 3c00 38be f431 16be
00000360: d914 a0bc 1b2d 793d b2a1 7dbc fc11 cf3d
00000370: 0e96 d63e 9038 c23d c845 4f3e 9212 fbbd
00000380: 6286 5abe c983 9a3c 3065 b1bd 282d c63c
00000390: 7d04 8a3c df85 f33d c439 00bf 5d22 2e3e
000003a0: 7507 fd3c 7a14 ae3e d3c1 fe3b 4691 8d3d
000003b0: 4d12 74bd 8939 27be b66c d6be 580a bebd
000003c0: 51b5 353e 566f 243e f7ac a33d 1f22 3e3d
000003d0: 07aa 053e a5f6 8cbd 1964 233d 0181 aa3e
000003e0: 1ccb 2abe 5e02 edbd 6995 893c 7398 07be
000003f0: cf51 14bd bfda 40be 1d59 e93b dd59 213e

lstm.bias_ih_l1 f4 [256]
0.37262073 0.26447433 0.57502156 0.32871616 0.63032544 0.6431344 0.15256211 0.5214047
0.4446976 0.22194447 0.23342283 0.42884064 0.28884986 0.43335453 0.4938845 0.32098952
0.26822853 0.3271044 0.38014635 0.5251195 0.5857503 0.18458757 1.3920528 0.63385487
0.4071186 0.28312227 0.5256967 0.31936383 0.7085163 0.38372105 0.52272546 0.15721963
0.46465874 0.68090016 0.400029 0.24544743 0.51796633 0.40043882 0.33047175 0.25479975
0.5662557 0.32641456 0.13479325 0.5475564 0.33003175 0.7226678 0.4933277 0.15924147
0.43668377 0.4801797 0.22748265 0.4276614 0.43948773 0.19960122 0.41422245 0.39030334
0.2839575 0.40473315 0.50075334 0.26049837 0.45028526 0.31955367 0.34449542 0.44980773
-0.028105687 -0.042368684 -0.016167456 0.15520622 -0.068983346 -0.15316758 -0.16796918 0.06877416
0.077826865 -0.059883814 0.13904198 0.056575038 0.029425425 -0.09857054 0.09899419 -0.22752102
0.006466081 -0.009849482 0.03875944 -0.08913096 -0.16734447 -0.059380118 0.10426314 0.01803214
0.030508228 0.0084398715 -0.020824092 -0.07953258 -0.15986203 0.069205776 0.0047060438 -0.06198464
-0.17333578 -0.0037921965 0.024145996 0.07690874 -0.10595891 0.061226223 -0.29811704 -0.1963534
0.035389744 -0.06894968 0.025170045 0.10998464 -0.021042809 -0.0008085641 0.050061956 0.18173304
-0.021626383 -0.04517158 0.01880553 -0.10009275 0.11408579 0.19059496 -0.11522377 -0.1366584
0.15349162 -0.08315313 -0.16398704 0.0031102928 0.1108436 -0.03738007 -0.04283356 -0.0055220425
0.21052836 -0.05331648 -0.010430213 0.11644556 0.12080674 0.05929793 -0.19056857 -0.056384403
-0.14717445 0.09556672 0.17569064 -0.18136168 -0.07734126 -0.01822552 -0.14196377 -0.09176036
-0.029975561 -0.14424692 0.085208096 0.025404103 0.010258509 -0.09288235 0.06531694 0.017383303
0.11629035 -0.11387903 -0.1584002 0.06884149 0.06390723 0.02006627 0.03203034 0.08567598
0.08220704 0.0045094504 0.17701098 0.10485672 0.016974512 0.05720812 -0.022217847 0.07053472
0.018604439 0.13440093 -0.02115873 0.24679714 0.033590645 -0.32721964 -0.039220594 -0.113653414
-0.026601056 -0.058486473 -0.024887893 0.23141064 0.06878008 -0.026307851 0.1463751 -0.027218878
-0.05142097 -0.11090587 -0.118365735 -0.011540393 0.0050014188 -0.18583666 0.023627445 0.29037294
0.38144884 0.51277936 0.2602296 0.38021955 0.36162853 0.26450703 0.41430297 0.49877602
0.29082534 0.25127774 0.42375016 0.598587 0.07091403 0.27888745 0.3955663 0.49375173
0.09143812 0.26313478 0.5773622 0.40299508 0.49044394 0.34797657 0.8376234 0.4214108
0.6554004 0.4956439 0.70091224 0.17618139 0.33151922 0.2952 0.18661918 0.5015101
0.24555099 0.3013953 0.3504099 0.29252684 0.48508197 0.4809689 0.47406334 0.2989692
0.44813827 0.28497526 0.16552277 0.47148773 0.19657314 0.6210179 0.45723736 0.42017823
0.5947588 0.30838788 0.288283 0.25152874 0.40325895 0.2907013 0.4190218 0.2678997
0.41569966 0.2675715 0.572054 0.3957343 0.20129211 0.25790355 0.21813561 0.67135096
00000000: 25c8 be3e 2e69 873e 9d34 133f 7c4d a83e
00000010: 025d 213f 75a4 243f 3e39 1c3e c77a 053f
00000020: 67af e33e 6945 633e 6506 6f3e 0091 db3e
00000030: 21e4 933e a5e0 dd3e 6ede fc3e bd58 a43e
00000040: 4055 893e 3a7a a73e 8ba2 c23e 3b6e 063f
00000050: bbf3 153f 8604 3d3e c92e b23f 5044 223f
00000060: d971 d03e 67f5 903e 0f94 063f a883 a33e
00000070: 5361 353f 1677 c43e 56d1 053f 2ffe 203e
00000080: c0e7 ed3e 794f 2e3f 9ad0 cc3e 9256 7b3e
00000090: 7199 043f 5106 cd3e 9833 a93e 1d75 823e
000000a0: 22f6 103f cf1f a73e 3e07 0a3e a82c 0c3f
000000b0: ecf9 a83e c200 393f 7395 fc3e 3210 233e
000000c0: 0495 df3e 1dda f53e 36f1 683e 6ff6 da3e
000000d0: 8904 e13e 4364 4c3e f714 d43e d7d5 c73e
000000e0: e162 913e 2f39 cf3e 5f31 003f 0b60 853e
000000f0: ca8b e63e 8a9c a33e b461 b03e 334d e63e
00000100: e63d e6bc c98a 2dbd 9d71 84bc 61ee 1e3e
00000110: 2447 8dbd f6d7 1cbe 1d00 2cbe 78d9 8c3d
00000120: b163 9f3d bb48 75bd 0561 0e3e 3abb 673d
00000130: 970d f13c 5adf c9bd 77bd ca3d 45fb 68be
00000140: 6be1 d33b b95f 21bc 38c2 1e3d 4b8a b6bd
00000150: 595c 2bbe 9138 73bd ea87 d53d 23b8 933c
00000160: 64ec f93c 6347 0a3c 4997 aabc fae1 a2bd
00000170: dfb2 23be c2bb 8d3d 2835 9a3b 9be3 7dbd
00000180: ef7e 31be 8086 78bb d3cd c53c 5482 9d3d
00000190: fc00 d9bd 59c8 7a3d cca2 98be de10 49be
000001a0: d6f4 103d 7d35 8dbd 6931 ce3c a03f e13d
000001b0: f861 acbc d1f5 53ba c40d 4d3d 3a18 3a3e
000001c0: d029 b1bc d605 39bd 0e0e 9a3c 6dfd ccbd
000001d0: d0a5 e93d 532b 433e 71fa ebbd 2ef0 0bbe
000001e0: e82c 1d3e 304c aabd 38ec 27be 0ed6 4b3b
000001f0: f801 e33d d81b 19bd 3e72 2fbd 40f2 b4bb
00000200: bf94 573e 6262 5abd 7ce3 2abc 027b ee3d
00000210: 8669 f73d 63e2 723d 6824 43be 55f3 66bd
00000220: e6b4 16be 7cb8 c33d 3fe8 333e e0b6 39be
00000230: 1865 9ebd b04d 95bc f35e 11be dbec bbbd
00000240: 4f8f f5bc 77b5 13be 9581 ae3d 441c d03c
00000250: 4e13 283c 1a39 bebd e3c4 853d 6e67 8e3c
00000260: a329 ee3d 6939 e9bd a933 22be c4fc 8c3d
00000270: cbe1 823d 0562 a43c 3f32 033d e376 af3d
00000280: 2a5c a83d 03c4 933b 5e42 353e 1fbf d63d
00000290: 220e 8b3c 1053 6a3d 3402 b6bc 8274 903d
000002a0: 5668 983c 66a0 093e 1355 adbc 64b8 7c3e
000002b0: 5896 093d 5589 a7be c6a5 20bd 1fc3 e8bd
000002c0: 75ea d9bc 838f 6fbd b2e1 cbbc e9f6 6c3e
000002d0: 92dc 8c3d 9083 d7bc 5be3 153e 20fa debc
000002e0: cc9e 52bd 9e22 e3bd bc69 f2bd eb13 3dbc
000002f0: f1e2 a33b f74b 3ebe 588e c13c c3ab 943e
00000300: 434d c33e 8245 033f d03c 853e 23ac c23e
00000310: 6027 b93e 776d 873e 851f d43e 925f ff3e
00000320: 0fe7 943e 7aa7 803e c8f5 d83e ff3c 193f
00000330: 603b 913d 56ca 8e3e ab87 ca3e 07cd fc3e
00000340: e943 bb3d 9ab9 863e 02ce 133f 5f55 ce3e
00000350: 781b fb3e fc29 b23e 7d6e 563f 28c3 d73e
00000360: 52c8 273f 0ac5 fd3e fc6e 333f e568 343e
00000370: e3bc a93e 7424 973e 1919 3f3e f762 003f
00000380: b871 7b3e 7c50 9a3e ed68 b33e 14c6 953e
00000390: aa5c f83e 8e41 f63e 6eb8 f23e 7e12 993e
000003a0: 6172 e53e 47e8 913e cd7e 293e d766 f13e
000003b0: 784a 493e 07fb 1e3f 041b ea3e 9a21 d73e
000003c0: 1d42 183f 04e5 9d3e d499 933e 60c8 803e
000003d0: f577 ce3e cdd6 943e 068a d63e 262a 893e
000003e0: 96d6 d43e 22ff 883e 2272 123f b09d ca3e
000003f0: 851f 4e3e ef0b 843e f15e 5f3e a8dd 2b3f
