name_generator_gram2.pth (torch, 297976 bytes, 11 tensors)

embedding.weight f4 [54, 64]
0.7290841 -0.0702336 1.1489782 -0.94306576 1.1855379 0.56754243 -0.092878416 -0.58851635
-1.4409252 0.22372735 0.5872889 -0.031170275 -1.9493089 -0.41722175 -1.567728 1.0304943
1.622112 0.37294155 -1.084048 -0.44055405 -2.304973 -0.01407149 -0.59757334 1.4952297
-0.52283496 1.3448061 -1.8636447 1.1731192 0.93650705 0.92789674 1.1528835 -0.062388647
0.5460131 -0.062966906 1.8646975 2.0006013 -0.74277306 0.6060799 1.2354916 -0.9445298
0.3703703 -0.5328592 -0.1957159 -0.047731392 -0.7806296 -0.699258 -0.3256338 -0.4405745
-0.21285234 -0.71867 0.5803865 -0.6598356 0.6076843 0.30127296 -1.3187212 0.7832067
-0.84171057 0.8230483 0.37631103 1.5502211 0.8579743 0.10009993 0.2132839 -1.7724031
0.98386145 -0.9813662 0.3494296 -1.483076 1.1254891 -0.42111695 0.795357 1.2323585
-0.7403982 0.39509758 -0.29656494 -0.09435872 -0.33495823 -0.8702061 0.7584952 0.043813266
0.35512748 -0.6865053 0.7667269 2.252641 -1.6115491 0.836376 -1.0733609 -1.8190589
0.46038285 -1.0901586 0.22525851 -0.19659592 -1.2880111 1.750773 -0.51892066 0.52915245
-1.5141473 -0.20440085 0.4557454 -0.47594145 -1.4764727 -0.3900462 1.0006261 -0.8405932
-0.39650342 0.26698157 -1.0347744 0.93666255 1.3668848 -3.999706 -2.4579775 0.052933037
0.13791238 -0.598512 -0.8922797 -0.95238316 -0.96949077 0.24724886 0.64836717 0.13904743
2.7234423 0.5553662 -0.24853355 0.15010564 0.38528734 0.23294252 -0.80659705 1.311193
-0.61437094 -2.1540477 -1.256797 0.8271603 -0.43634576 0.5859696 -0.06743731 -0.3338766
-0.42159554 0.44142786 -1.0467844 0.21419491 0.44644237 -1.27597 0.098821454 1.0806096
-0.44991383 -0.28839204 -1.0153261 -0.031472087 0.24765678 -0.70852625 -0.6923764 0.6227497
-0.41069475 -2.6615808 0.11240537 0.17428336 1.4737326 -2.0659347 0.6916114 -0.6497264
1.2357996 -1.1472799 0.9035641 1.2840753 0.60674876 0.4048358 2.226005 -0.8947021
-0.9924769 -2.316061 0.908784 -0.57045186 -1.3738875 0.7181949 -1.6218349 -1.9590507
-0.49261633 -0.45027378 -0.039124396 0.19435954 -0.023152333 -0.4839471 -0.84995854 1.0347859
-2.1280587 0.69295675 -0.86626667 0.20297633 0.6453146 0.82894975 -0.60640323 0.13417839
0.789681 0.2007369 0.35477504 0.026721168 -1.1609339 -1.8979188 1.7174839 0.2778093
0.8290938 -0.5253382 0.63673645 0.85009 0.71078545 -1.3158625 -0.34112918 0.4234144
1.7739055 0.6759923 1.2819505 -0.8147851 -0.9115555 0.11360844 0.88598543 0.34765452
2.3243454 -1.6399966 0.28878355 -0.26157874 1.2433131 -1.0706381 0.49559703 0.005692278
-0.67843825 -0.7833293 0.37019297 0.2260219 -0.99862564 0.6440451 2.7473009 0.32540473
-0.5186834 -0.8035216 0.12555909 -1.2227378 1.244916 0.13155459 0.724632 -0.42279404
-0.17205897 0.5267728 0.68875337 -0.84406877 1.19292 -0.8047463 0.15157121 -0.67809445
0.5560456 -0.69406927 -0.0941867 0.56556165 -0.4489643 -1.4392571 0.49854755 -0.30830714
00000000: 41a5 3a3f a2d6 8fbd b811 933f c26c 71bf
00000010: b5bf 973f 764a 113f 0a37 bebd 02a9 16bf
00000020: 3d70 b8bf c818 653e 9158 163f ce58 ffbc
00000030: f482 f9bf 179e d5be 50ab c8bf 3de7 833f
00000040: 5ea1 cf3f 32f2 be3e 16c2 8abf 4d90 e1be
00000050: ad84 13c0 1b8c 66bc 91fa 18bf b063 bf3f
00000060: 83d8 05bf 9b22 ac3f e98b eebf c528 963f
00000070: edbe 6f3f a48a 6d3f b091 933f 3d8b 7fbd
00000080: 84c7 0b3f cbf4 80bd 68ae ee3f da09 0040
00000090: 6026 3ebf 0d28 1b3f 9724 9e3f b4cc 71bf
000000a0: 2da1 bd3e 7669 08bf c069 48be fe81 43bd
000000b0: 57d7 47bf 9302 33bf 79b9 a6be fb92 e1be
000000c0: f7f5 59be c2fa 37bf 3694 143f fcea 28bf
000000d0: 3391 1b3f 7340 9a3e dbcb a8bf 3c80 483f
000000e0: 587a 57bf 4bb3 523f d7ab c03e a56d c63f
000000f0: 34a4 5b3f 3101 cd3d 1867 5a3e 1bde e2bf
00000100: 58de 7b3f d13a 7bbf 70e8 b23e 6fd5 bdbf
00000110: 0710 903f a49c d7be 849c 4b3f ecbd 9d3f
00000120: bd8a 3dbf 3b4a ca3e 5cd7 97be 253f c1bd
00000130: a57f abbe d4c5 5ebf be2c 423f 8a75 333d
00000140: 45d3 b53e d0be 2fbf 3748 443f 452b 1040
00000150: 3e47 cebf bd1c 563f e463 89bf ecd6 e8bf
00000160: 4db7 eb3e 518a 8bbf 2baa 663e 7150 49be
00000170: 8cdd a4bf 5419 e03f fcd7 04bf 8976 073f
00000180: 94cf c1bf 754e 51be 7657 e93e 99ae f3be
00000190: 0ffd bcbf 23b4 c7be 8414 803f 1e31 57bf
000001a0: 7f02 cbbe cfb1 883e 7d73 84bf 1ec9 6f3f
000001b0: 15f6 ae3f 2ffb 7fc0 814f 1dc0 50d0 583d
000001c0: e738 0d3e 1538 19bf 716c 64bf 62cf 73bf
000001d0: 8c30 78bf ce2e 7d3e 64fb 253f 7362 0e3e
000001e0: e14c 2e40 7b2c 0e3f 947f 7ebe 4bb5 193e
000001f0: 6244 c53e 7c88 6e3e 257d 4ebf 2cd5 a73f
00000200: 6a47 1dbf ebdb 09c0 b9de a0bf c7c0 533f
00000210: b668 dfbe 1b02 163f 931c 8abd e0f1 aabe
00000220: 5fdb d7be d502 e23e 08fd 85bf e955 5b3e
00000230: 1894 e43e fc52 a3bf e762 ca3d 6a51 8a3f
00000240: 1b5b e6be 1fa8 93be 35f6 81bf e0e8 00bd
00000250: bd99 7d3e fa61 35bf 943f 31bf 866c 1f3f
00000260: 9546 d2be 5757 2ac0 c934 e63d 5677 323e
00000270: 45a3 bc3f 4638 04c0 720d 313f 7854 26bf
00000280: ae2e 9e3f 11da 92bf fa4f 673f 945c a43f
00000290: e353 1b3f a346 cf3e de76 0e40 320b 65bf
000002a0: f712 7ebf 583a 14c0 11a6 683f 2209 12bf
000002b0: 8cdb afbf 9fdb 373f 4998 cfbf 2cc2 fabf
000002c0: 3538 fcbe 498a e6be e740 20bd 3006 473e
000002d0: f6a9 bdbc eac7 f7be e296 59bf dd73 843f
000002e0: 1d32 08c0 9d65 313f a7c3 5dbf 07d9 4f3e
000002f0: 5633 253f 0d36 543f 3e3d 1bbf 0f66 093e
00000300: 8928 4a3f f98d 4d3e 13a5 b53e 5ae6 da3c
00000310: 7b99 94bf 01ef f2bf 83d6 db3f 053d 8e3e
00000320: 7e3f 543f 907c 06bf 2901 233f 809f 593f
00000330: 09f6 353f 2f6e a8bf 7ca8 aebe c6c9 d83e
00000340: 560f e33f d50d 2d3f f416 a43f c295 50bf
00000350: b45b 69bf 8bab e83d f1cf 623f c6ff b13e
00000360: 13c2 1440 69eb d1bf 70db 933e a6ed 85be
00000370: e224 9f3f ab0a 89bf e5be fd3e 4a86 ba3b
00000380: 21ae 2dbf 4588 48bf ef89 bd3e 4972 673e
00000390: eea5 7fbf 24e0 243f c7d3 2f40 739b a63e
000003a0: 6fc8 04bf 97b3 4dbf 9092 003e ac82 9cbf
000003b0: 6859 9f3f 3fb6 063e 7c81 393f 7678 d8be
000003c0: 3a30 30be 95da 063f 2452 303f e414 58bf
000003d0: 9ab1 983f db03 4ebf 7c35 1b3e 9997 2dbf
000003e0: 0159 0e3f 86ae 31bf f5e4 c0bd a6c8 103f
000003f0: a6de e5be 9439 b8bf a041 ff3e 6fda 9dbe

lstm.weight_ih_l0 f4 [256, 64]
-0.046353318 0.30267143 -0.11166972 -0.061060723 0.06846682 -0.07790652 0.117889985 -0.0552138
0.06341219 -0.04599073 -0.09916387 0.0076855714 0.15040186 -0.13597184 0.23712087 0.16118714
0.034728874 0.06156802 0.053081635 0.16325405 -0.0636903 -0.046783127 0.022909252 0.10576992
0.09962083 -0.19933137 0.0416819 -0.08206672 -0.16064127 -0.020406023 -0.08496768 0.1873009
-0.14666547 0.12272679 0.013640984 -0.08135946 -0.09225363 0.015982322 -0.041137256 -0.2500001
-0.19477656 0.019300792 -0.21683806 0.020348443 -0.036082488 -0.010266581 -0.10298391 0.059561823
-0.14479394 0.19349644 0.08364995 0.020823635 -0.057551835 0.015212315 -0.13581009 -0.028188499
0.16358714 -0.08898872 0.004317339 -0.039518658 0.011467786 -0.12080643 -0.19893861 0.119852155
0.09765729 0.19680499 0.13370831 -0.06178431 -0.08828198 0.0070870467 0.29250014 -0.07425937
-0.1535812 -0.014479644 0.05021453 0.02827269 -0.07490404 -0.37063727 -0.11476337 0.12353765
-0.09450511 0.14502019 -0.0064258887 -0.038827986 0.14787515 0.033541568 -0.13038577 -0.25425914
0.24681407 -0.15434213 -0.39577067 0.17978626 0.006376127 -0.019586187 0.15725672 0.12690087
-0.21105458 0.067001365 0.07601858 0.2853348 -0.08931677 0.080123976 0.19407932 -0.13573375
-0.057196744 -0.18699446 -0.12515862 0.11588614 0.09803906 0.03084111 -0.20871757 0.19210324
-0.2886763 -0.017288176 0.25181872 0.043096256 0.20712456 0.10503482 -0.01496942 0.06252462
-0.00038015563 -0.19699737 0.035029665 -0.025414387 0.088398576 -0.2561379 0.05603793 -0.08665242
-0.03869177 -0.12803084 -0.28809825 0.011954901 0.29063708 0.046937145 -0.046907835 -0.11243863
-0.014905811 0.26880276 -0.17854609 0.028243363 -0.17724892 -0.068443276 0.18931186 -0.066863686
-0.111947104 -0.108836435 -0.086362265 -0.15187098 -0.04152967 0.22072229 -0.19621347 0.10336442
0.20245928 -0.1689799 -0.14751703 0.2752615 -0.31178316 -0.11241971 0.18189614 0.08152089
0.15206823 -0.041767314 -0.018294431 0.113884024 0.20536353 -0.20936401 0.19828245 -0.2796446
0.13754123 -0.22418523 0.023575585 -0.019898107 -0.08822103 0.07049726 0.052316308 0.03865413
-0.036307957 -0.030352894 -0.05426931 -0.13313386 0.25903833 0.14416228 -0.41703403 -0.023491317
-0.041496094 -0.13953215 0.10358633 0.1323407 -0.035092488 0.11804842 -0.11368796 -0.26454017
0.2923531 0.12562054 0.0739732 -0.015267393 0.0012400602 0.16028959 -0.24501751 -0.16798098
0.056164823 -0.013865534 -0.20981863 0.24649681 0.08967683 -0.05521152 0.037155744 -0.048538208
-0.18760704 -0.25061327 0.14154454 -0.087992385 0.14718346 -0.26850715 -0.03503136 0.06865651
0.1533725 -0.010272232 0.030431619 -0.05137289 0.03495537 -0.26209065 0.12401528 -0.13717696
-0.036281385 0.27904359 0.293777 -0.2395654 -0.008758059 0.044987217 -0.39663965 0.1731723
0.05188558 0.029288564 0.04882458 -0.07746572 -0.1444689 0.009663528 -0.5081619 0.14493611
-0.21861604 -0.1148413 0.073595695 0.042066477 -0.18282993 0.31172094 -0.15124655 -0.12014386
0.06965243 -0.1697213 -0.091255 0.18164799 0.046395432 0.1336276 -0.058140453 0.059893124
00000000: fadc 3dbd c0f7 9a3e 18b3 e4bd cf1a 7abd
00000010: 5538 8c3d 748d 9fbd 4e70 f13d de27 62bd
00000020: 40de 813d c760 3cbd 6d16 cbbd 3fd7 fb3b
00000030: f202 1a3e 343c 0bbe d0cf 723e 3e0e 253e
00000040: dd3f 0e3d c02e 7c3d 216c 593d 122c 273e
00000050: 0f70 82bd aa9f 3fbd 2fac bb3c e69d d83d
00000060: 0106 cc3d 861d 4cbe a4ba 2a3d 9912 a8bd
00000070: 257f 24be 882a a7bc 8903 aebd cfcb 3f3e
00000080: 792f 16be 2f58 fb3d 6f7e 5f3c ca9f a6bd
00000090: 79ef bcbd 5ced 823c 8a7f 28bd 0300 80be
000000a0: 8273 47be b21c 9e3c cc0a 5ebe c7b1 a63c
000000b0: 3bcb 13bd 2935 28bc 3ae9 d2bd 19f7 733d
000000c0: dd44 14be ee23 463e aa50 ab3d 5496 aa3c
000000d0: 79bb 6bbd 133d 793c cd11 0bbe 91eb e6bc
000000e0: 6383 273e b83f b6bd 7778 8d3b 51de 21bd
000000f0: 61e3 3b3c 5d69 f7bd 90b6 4bbe 0c75 f53d
00000100: 8c00 c83d 3f87 493e d5ea 083e 8b11 7dbd
00000110: 2fcd b4bd 753a e83b 94c2 953e 4c15 98bd
00000120: 6444 1dbe 073c 6dbc c0ad 4d3d 219c e73c
00000130: 4a67 99bd 2bc4 bdbe 0f09 ebbd 4f01 fd3d
00000140: e58b c1bd 2c80 143e 4390 d2bb 180a 1fbd
00000150: 956c 173e e262 093d d983 05be 412e 82be
00000160: d4bc 7c3e dd0b 1ebe 74a2 cabe e419 383e
00000170: d4ee d03b 3673 a0bc e807 213e 4df2 013e
00000180: b11e 58be 0338 893d a1af 9b3d 6717 923e
00000190: b6eb b6bd 0a18 a43d bbbc 463e cafd 0abe
000001a0: 2247 6abd 7a7b 3fbe 9529 00be b655 ed3d
000001b0: b4c8 c83d 7fa6 fc3c 0fba 55be b6b6 443e
000001c0: 61cd 93be ef9f 8dbc 62ee 803e b385 303d
000001d0: 7618 543e 7f1c d73d 4c42 75bc e80c 803d
000001e0: a04f c7b9 aeb9 49be 447b 0f3d d531 d0bc
000001f0: 500a b53d 8224 83be 0788 653d d376 b1bd
00000200: 437b 1ebd 841a 03be 9d81 93be 7dde 433c
00000210: 62ce 943e 2a41 403d 6e22 40bd 3946 e6bd
00000220: 8137 74bc 84a0 893e c9d4 36be a05e e73c
00000230: be80 35be fd2b 8cbd f8da 413e d4ef 88bd
00000240: 8644 e5bd a3e5 debd b3de b0bd 1184 1bbe
00000250: 041b 2abd 0605 623e 2fec 48be bab0 d33d
00000260: 7c51 4f3e 1109 2dbe b40e 17be 13ef 8c3e
00000270: 0ba2 9fbe 4e3c e6bd fb42 3a3e 6df4 a63d
00000280: c6b7 1b3e 3414 2bbd 34de 95bc 073c e93d
00000290: d14a 523e 8563 56be 8e0a 4b3e 942d 8fbe
000002a0: 9cd7 0c3e d090 65be 9621 c13c 5b01 a3bc
000002b0: 3aad b4bd de60 903d a049 563d cb53 1e3d
000002c0: a7b7 14bd a2a6 f8bc 7f49 5ebd 3e54 08be
000002d0: aca0 843e 479f 133e 7c85 d5be dd70 c0bc
000002e0: cff7 29bd 84e1 0ebe 1225 d43d 5284 073e
000002f0: 24bd 0fbd 5fc3 f13d 3cd5 e8bd cf71 87be
00000300: 4eaf 953e aca2 003e 437f 973d 1624 7abc
00000310: 8489 a23a f422 243e dfe5 7abe 3503 2cbe
00000320: 160d 663d 442c 63bc b2da 56be a969 7c3e
00000330: 7ca8 b73d 7a25 62bd 9f30 183d 00d0 46bd
00000340: 0f1c 40be 6250 80be 0df1 103e 5a35 b4bd
00000350: 43b7 163e c579 89be 0b7d 0fbd c99b 8c3d
00000360: ae0d 1d3e dd4c 28bc bb4b f93c 616c 52bd
00000370: 5d2d 0f3d bf30 86be b9fb fd3d 1e78 0cbe
00000380: ca9b 14bd cdde 8e3e f069 963e a250 75be
00000390: f67d 0fbc 8444 383d 5a14 cbbe 1454 313e
000003a0: f985 543d 92ee ef3c 48fc 473d 59a6 9ebd
000003b0: a8ef 13be c653 1e3c e616 02bf 226a 143e
000003c0: e2dc 5fbe ea31 ebbd 57b9 963d e64d 2c3d
000003d0: c537 3bbe e399 9f3e 60e0 1abe fc0d f6bd
000003e0: efa5 8e3d 6ccb 2dbe e7e3 babd ee01 3a3e
000003f0: 2309 3e3d acd5 083e af24 6ebd 7e52 753d

lstm.weight_hh_l0 f4 [256, 64]
0.3291424 -0.25097686 0.2508465 0.031985033 -0.38524032 0.14427757 0.23671536 0.103545345
0.06735407 -0.034152407 -0.0056263744 0.17604806 0.087038726 0.020664863 -0.21721153 -0.12353498
-0.25055104 0.6111131 0.1397131 0.22662434 0.034662157 0.22663094 0.113059014 0.14527808
0.14198263 -0.1392515 -0.08507556 -0.19244753 -0.03752579 0.094515584 -0.25970954 0.12043818
0.06347155 0.048528224 -0.3850756 -0.25784698 -0.3097474 -0.09314653 0.44252384 -0.258557
-0.19383179 -0.033267334 -0.22788705 -0.15266743 -0.12527871 0.26010773 0.3825227 -0.18063499
-0.18259977 0.16688462 -0.14941889 0.15366088 -0.21113612 0.20557496 0.019996624 0.05440577
0.109357856 -0.15490875 -0.108601846 0.009929092 -0.33792147 -0.2760921 -0.07137991 -0.08762304
0.24857835 -0.1546838 -0.14700817 0.0012258239 -0.26235217 0.02347625 -0.068025984 0.117971465
0.07598353 0.23334467 0.023379458 -0.36050284 0.017164867 -0.04835004 -0.1377502 -0.34719494
-0.182315 0.29535866 0.30397314 0.050864138 0.17626898 -0.08896351 0.044722386 -0.047154807
0.14087483 0.026009826 -0.17903697 -0.2424445 -0.06637389 -0.27336416 0.09150743 -0.042982593
0.0916207 -0.32715625 -0.123199806 0.10717292 0.25254998 0.046821877 0.2318182 -0.2902418
0.07112379 -0.0077624316 -0.12410944 0.0692192 0.33089307 0.5833257 -0.15352452 0.066725515
0.06274956 -0.18027602 0.03170834 0.13145053 0.11268394 0.024991702 0.055900972 0.12741989
0.0033816413 -0.34919667 0.13866797 0.14821286 0.016468296 0.013755014 -0.066533856 0.106962174
0.102545075 -0.26072457 -0.18500017 0.42336836 -0.33157933 0.23082219 0.06645855 -0.14424345
-0.0010133972 0.22676688 -0.024102088 -0.0018530684 -0.24423313 0.15112586 -0.22835569 0.2860338
-0.08950909 0.17337988 0.023878075 -0.21718317 0.031076845 -0.31562892 0.064041995 0.06093606
0.2529738 0.15109998 -0.15970942 0.047812924 -0.24359196 0.20192227 -0.050078582 0.036250565
-0.36139166 0.26289856 -0.1253291 0.2027994 -0.07588846 -0.3387457 0.251635 -0.15020293
-0.23732266 -0.058522057 -0.2812157 0.21990032 0.15807861 0.046142578 -0.15729909 -0.02147367
-0.078928776 0.038498443 -0.06546862 0.08007624 -0.0189078 0.07406063 0.2888202 0.2168524
-0.032273818 -0.12875621 0.077862635 0.13316295 -0.21832941 -0.106149316 -0.11573899 -0.027945407
0.30229005 -0.066487625 0.0027783264 0.0852072 -0.34585705 0.19826797 0.101237945 0.02631335
0.073046274 0.32225907 -0.2939095 0.32336146 -0.19938481 0.52650285 -0.25198802 0.18375237
-0.3421871 -0.07843616 -0.12708908 0.07865273 0.20614034 -0.009098899 0.32973194 0.04737962
-0.12634264 -0.093523845 -0.052250564 -0.21211752 0.08391402 0.2536935 -0.21499847 -0.25270227
-0.019034142 -0.029384226 -0.06462069 0.047688436 -0.15539476 0.022065258 0.30916193 -0.20179772
-0.34517482 0.18951756 0.02288807 -0.05852856 0.16643052 0.13251849 0.11797549 0.016175438
0.04857012 0.075118676 0.11576882 0.16209908 0.15699778 0.24646105 -0.045470756 0.10684235
0.10686372 -0.33203942 0.027025433 0.06477859 0.03555991 -0.24978746 -0.100969836 -0.30227804
00000000: 5a85 a83e 0a80 80be f46e 803e bd02 033d
00000010: 383e c5be 80bd 133e 8365 723e 950f d43d
00000020: eef0 893d 65e3 0bbd 735d b8bb f145 343e
00000030: 5c41 b23d 5c49 a93c b36c 5ebe e8ff fcbd
00000040: 3a48 80be e871 1c3f f310 0f3e 3610 683e
00000050: e8f9 0d3d f111 683e 7c8b e73d c7c3 143e
00000060: e563 113e f297 0ebe 183c aebd f710 45be
00000070: a5b4 19bd 6391 c13d a6f8 84be 4ba8 f63d
00000080: 5ffd 813d 88c5 463d a128 c5be 8504 84be
00000090: 3697 9ebe 9cc3 bebd 7c92 e23e 9561 84be
000000a0: d77b 46be 5443 08bd 395b 69be da54 1cbe
000000b0: 1049 00be d72c 853e 04da c33e 61f8 38be
000000c0: 6ffb 3abe cde3 2a3e 4401 19be 4759 1d3e
000000d0: 1134 58be 3e82 523e f6cf a33c 96d8 5e3d
000000e0: 03f7 df3d 66a0 1ebe a56a debd a1ad 223c
000000f0: 0b04 adbe f25b 8dbe a12f 92bd b573 b3bd
00000100: 538b 7e3e 6e65 1ebe 4f89 16be d3ab a03a
00000110: 0653 86be 4451 c03c 3551 8bbd 069b f13d
00000120: 419d 9b3d e8f1 6e3e 4786 bf3c d493 b8be
00000130: 569d 8c3c b10a 46bd 630e 0dbe 89c3 b1be
00000140: c9b0 3abe 4039 973e 5ea2 9b3e ea56 503d
00000150: db7f 343e 8032 b6bd d22e 373d 6625 41bd
00000160: 7e41 103e 8f12 d53c 7855 37be 5f43 78be
00000170: 09ef 87bd 63f6 8bbe 3f68 bb3d 840e 30bd
00000180: a2a3 bb3d 0681 a7be 2e50 fcbd 7a7d db3d
00000190: 3b4e 813e 4cc8 3f3d c061 6d3e 939a 94be
000001a0: 5aa9 913d ff5b febb 172d febd ccc2 8d3d
000001b0: d16a a93e d554 153f 8835 1dbe 63a7 883d
000001c0: d782 803d 479a 38be 9be0 013d f89a 063e
000001d0: d6c6 e63d 66bb cc3c 6bf8 643d 5c7a 023e
000001e0: 879e 5d3b e8c9 b2be fafe 0d3e 1dc5 173e
000001f0: 85e8 863c b65c 613c e742 88bd fc0e db3d
00000200: 2703 d23d b17d 85be af70 3dbe bdc3 d83e
00000210: c4c4 a9be a75c 6c3e 6c1b 883d 8eb4 13be
00000220: f8d3 84ba 9435 683e be71 c5bc a8e2 f2ba
00000230: 4018 7abe bdc0 1a3e 13d6 69be 0673 923e
00000240: 8b50 b7bd 7f8a 313e f49b c33c 4465 5ebe
00000250: de94 fe3c 1d9a a1be 7328 833d 1798 793d
00000260: c885 813e f4b9 1a3e de8a 23be 7cd7 433d
00000270: 2c70 79be b6c4 4e3e 331f 4dbd 797b 143d
00000280: 5408 b9be a49a 863e 4656 00be a5aa 4f3e
00000290: 696b 9bbd 1470 adbe 4dd6 803e ccce 19be
000002a0: b604 73be d3b4 6fbd 81fb 8fbe 8d2d 613e
000002b0: 5cdf 213e 0000 3d3d 0313 21be 8de9 afbc
000002c0: 69a5 a1bd 8bb0 1d3d 6914 86bd 03ff a33d
000002d0: 88e4 9abc 19ad 973d 3ee0 933e 8e0e 5e3e
000002e0: 8d31 04bd abd8 03be 7276 9f3d de5b 083e
000002f0: bf91 5fbe d064 d9bd 9008 edbd c4ed e4bc
00000300: c3c5 9a3e aa2a 88bd 9514 363b 1d81 ae3d
00000310: 2d14 b1be c206 4b3e d755 cf3d 188f d73c
00000320: 4999 953d 24ff a43e 4e7b 96be a28f a53e
00000330: 882b 4cbe e4c8 063f 9304 81be 9529 3c3e
00000340: 2633 afbe 23a3 a0bd a423 02be af14 a13d
00000350: 7416 533e 8c13 15bc a0d2 a83e 2211 423d
00000360: f75f 01be 6e89 bfbd b004 56bd 5635 59be
00000370: 1ddb ab3d 1de4 813e 8f28 5cbe 3162 81be
00000380: 7ded 9bbc 30b7 f0bc da57 84bd f354 433d
00000390: ce1f 1fbe 33c2 b43c 794a 9e3e 10a4 4ebe
000003a0: c1ba b0be e410 423e c37f bb3c a5bb 6fbd
000003b0: c36c 2a3e edb2 073e 229d f13d 5a82 843c
000003c0: 76f1 463d d2d7 993d 3418 ed3d 4dfd 253e
000003d0: 07c4 203e 4960 7c3e 8b3f 3abd 29d0 da3d
000003e0: 5edb da3d 1201 aabe 7164 dd3c a3aa 843d
000003f0: 45a7 113d 49c8 7fbe 46c9 cebd 30c4 9abe

lstm.bias_ih_l0 f4 [256]
0.27569556 0.32289505 0.31438676 0.4009428 0.26458138 0.45708922 0.240863 0.29353616
0.44710326 0.37236065 0.25615534 0.24806666 0.32509845 0.19719078 0.17447226 0.28173864
0.3426481 0.43922934 0.17830105 0.4267531 0.302805 0.39437327 0.18109937 0.31409997
0.423846 0.35746893 0.322625 0.42051452 0.3814438 0.38289818 0.29454875 0.46546748
0.39768142 0.2380614 0.31335467 0.14623284 0.52562636 0.4152534 0.4536922 0.21411686
0.3216651 0.40897557 0.14852166 0.35760838 0.41994935 0.34564382 0.49778223 0.3673861
0.31501815 0.46090883 0.30909783 0.39890715 0.30408165 0.3544792 0.43892732 0.30900112
0.22509193 0.16572504 0.41382506 0.37829795 0.21845701 0.37624866 0.21951574 0.22666936
-0.10947858 0.09043416 0.017163247 0.14181809 0.093660265 0.03341829 0.16679773 0.09029652
0.15302052 -0.15560974 0.14310901 -0.04930024 -0.32179457 0.0961749 0.012469938 0.15990686
0.1123777 0.11437268 0.017131038 -0.050304096 -0.032822043 0.017507596 -0.1471821 0.23944569
0.12556286 -0.07405338 0.22625066 0.025357675 0.18582709 -0.07542826 0.24266838 -0.02158421
0.19059046 0.22296925 0.17266594 -0.010957194 0.062127486 0.004610753 0.11577249 0.21179903
0.14395888 0.120783925 0.030703058 0.123667955 -0.015520924 0.11678892 0.28071958 0.10038548
0.12165412 0.087647766 0.14852606 0.16613413 -0.024344815 0.093156986 -0.06686835 0.058953643
0.20454727 0.056754496 -0.019723559 0.21321616 0.15156919 -0.12491062 -0.011368539 0.09717465
0.0277382 -0.15487145 0.1418488 0.18917853 0.033913974 0.035877224 0.005063662 0.10258072
0.077694304 0.16608725 -0.09873533 0.0009371094 -0.07603195 -0.021893872 -0.14282545 0.116646275
0.061093662 0.11616796 0.12440061 0.014845991 0.19845264 0.12559968 -0.09641241 -0.008204032
0.09741761 -0.05477418 -0.12510662 -0.018243885 -0.01887389 0.041705675 0.030648377 -0.039415445
-0.16882242 0.029053885 -0.042854972 0.14602539 0.028398579 -0.015531911 0.14686866 0.08539169
-0.08845497 -0.10523031 -0.03306155 -0.0029640822 0.0014318416 0.19232014 0.05639817 -0.09860646
-0.027767288 0.22288497 0.10218373 -0.07695892 -0.10824767 -0.05917571 0.15053916 0.15356903
0.14675231 0.0426298 0.094098814 -0.12573144 -0.07933975 -0.119441174 -0.1325191 -0.22672814
0.2958512 0.29962787 0.29094872 0.35727355 0.31227443 0.12443848 0.18050642 0.36247253
0.28699073 0.2779826 0.15057233 0.4306085 0.3827582 0.3163799 0.30565712 0.20822732
0.342877 0.20933619 0.17547409 0.5810652 0.48712322 0.3438011 0.16792539 0.27557078
0.5451638 0.15705359 0.27295074 0.2562881 0.31769484 0.2617905 0.20239884 0.43150693
0.3635009 0.37947506 0.16237646 0.30952528 0.28003892 0.30915695 0.21441264 0.29983547
0.26631024 0.28716695 0.37331513 0.36073238 0.5458189 0.42769736 0.20074144 0.32026953
0.31970987 0.1406553 0.26910853 0.34470493 0.083392434 0.26840326 0.2201626 0.2711508
0.13478197 0.34767732 0.45728743 0.14345372 0.18431823 0.2750138 0.49347842 0.14129789
00000000: f827 8d3e 8052 a53e 4df7 a03e 6048 cd3e
00000010: 3677 873e 9907 ea3e caa4 763e 5f4a 963e
00000020: b8ea e43e 0ea6 be3e cb26 833e 3005 7e3e
00000030: 4e73 a63e 61ec 493e dba8 323e 0c40 903e
00000040: 926f af3e abe2 e03e 8d94 363e 627f da3e
00000050: 4209 9b3e 4beb c93e 1d72 393e b6d1 a03e
00000060: 5802 d93e 2b06 b73e 1b2f a53e ae4d d73e
00000070: 9a4c c33e 3b0b c43e 18cf 963e c151 ee3e
00000080: e69c cb3e 5ec6 733e 0670 a03e 10be 153e
00000090: 738f 063f 189c d43e 584a e83e 7341 5b3e
000000a0: 4ab1 a43e 3f65 d13e 1016 183e 7218 b73e
000000b0: 9a03 d73e 3af8 b03e 50dd fe3e 081a bc3e
000000c0: 0f4a a13e 3efc eb3e 1242 9e3e 8f3d cc3e
000000d0: 97b0 9b3e 4c7e b53e 15bb e03e 6535 9e3e
000000e0: 807e 663e d3b3 293e e1e0 d33e 45b0 c13e
000000f0: 32b3 5f3e aaa3 c03e bcc8 603e 031c 683e
00000100: 4e36 e0bd 8b35 b93d f099 8c3c c338 113e
00000110: f4d0 bf3d 9ee1 083d 06cd 2a3e 62ed b83d
00000120: 69b1 1c3e 2958 1fbe 2b8b 123e 0cef 49bd
00000130: 42c2 a4be 59f7 c43d b64e 4c3c a0be 233e
00000140: 4826 e63d 393c ea3d 6456 8c3c ab0b 4ebd
00000150: 6870 06bd 176c 8f3c e8b6 16be 4031 753e
00000160: 8d93 003e 4ca9 97bd 41ae 673e e6ba cf3c
00000170: 7549 3e3e 227a 9abd 0f7e 783e 5fd1 b0bc
00000180: 252a 433e 0d52 643e 57cf 303e cd85 33bc
00000190: 6479 7e3d cd15 973b 211a ed3d d8e1 583e
000001a0: f569 133e 905d f73d fb84 fb3c a045 fd3d
000001b0: 794b 7ebc 072f ef3d 7aba 8f3e e796 cd3d
000001c0: cc25 f93d ac80 b33d 3717 183e 111f 2a3e
000001d0: c76e c7bc 17c9 be3d 46f2 88bd 6079 713d
000001e0: d774 513e 6777 683d 4d93 a1bc 5655 5a3e
000001f0: f434 1b3e 24d1 ffbd 1c43 3abc 8103 c73d
00000200: 393b e33c 9f96 1ebe d040 113e 04b8 413e
00000210: 61e9 0a3d fff3 123d 13ed a53b d715 d23d
00000220: 311e 9f3d c712 2a3e c035 cabd 59a8 753a
00000230: a4b6 9bbd c75a b3bc d640 12be 3ee4 ee3d
00000240: 593d 7a3d 78e9 ed3d bfc5 fe3d 993c 733c
00000250: 2b37 4b3e 349d 003e df73 c5bd 346a 06bc
00000260: e282 c73d e45a 60bd f31b 00be 3374 95bc
00000270: 6b9d 9abc 92d3 2a3d 4e12 fb3c 1772 21bd
00000280: c9df 2cbe 6a02 ee3c b288 2fbd ae87 153e
00000290: 23a4 e83c 8e79 7ebc bd64 163e d7e1 ae3d
000002a0: e127 b5bd fd82 d7bd 8c6b 07bd 0c41 42bb
000002b0: a2ac bb3a 92ef 443e c401 673d 2ff2 c9bd
000002c0: 3978 e3bc f53b 643e b445 d13d a39c 9dbd
000002d0: f4b0 ddbd 3b62 72bd f026 1a3e 3341 1d3e
000002e0: 3d46 163e 969c 2e3d e1b6 c03d bebf 00be
000002f0: e17c a2bd 939d f4bd 16b3 07be 6c2b 68be
00000300: cf79 973e d368 993e 3bf7 943e 8fec b63e
00000310: 6fe2 9f3e 9ad9 fe3d add6 383e 0096 b93e
00000320: 73f0 923e bc53 8e3e a22f 1a3e b878 dc3e
00000330: e2f8 c33e 8cfc a13e 177f 9c3e 8b39 553e
00000340: 938d af3e 3a5c 563e 7baf 333e b0c0 143f
00000350: 3768 f93e b306 b03e a2f4 2b3e 9d17 8d3e
00000360: db8f 0b3f a8d2 203e 33c0 8b3e 3238 833e
00000370: e6a8 a23e 6809 863e a441 4f3e 7aee dc3e
00000380: ca1c ba3e 8e4a c23e 0446 263e 197a 9e3e
00000390: 4361 8f3e d249 9e3e fd8e 5b3e 0984 993e
000003a0: d159 883e 8c07 933e 2923 bf3e eab1 b83e
000003b0: caba 0b3f 26fb da3e 2a8f 4d3e 5efa a33e
000003c0: 03b1 a33e f107 103e 98c8 893e 2a7d b03e
000003d0: a7c9 aa3d 276c 893e 4e72 613e 47d4 8a3e
000003e0: 4904 0a3e c302 b23e 9421 ea3e 88e5 123e
000003f0: ebbd 3c3e 9cce 8c3e 34a9 fc3e 65b0 103e

lstm.bias_hh_l0 f4 [256]
0.3339538 0.3727066 0.30378112 0.36660582 0.16552436 0.23326525 0.26822007 0.24130543
0.48166066 0.24539575 0.13956074 0.3967003 0.13075972 0.24558626 0.26800287 0.3789392
0.13230646 0.34083757 0.3207557 0.3117966 0.41253978 0.37010643 0.14807399 0.29386246
0.5620885 0.32167563 0.37755302 0.33723748 0.38788557 0.16724983 0.3515405 0.5002495
0.4892999 0.3687538 0.19954151 0.2578622 0.5010175 0.24584892 0.35866743 0.19769423
0.374022 0.41882405 0.28977513 0.13434933 0.1840832 0.3327148 0.3930599 0.31417602
0.12412261 0.301807 0.4819432 0.38868806 0.25272325 0.2071898 0.38467547 0.2903879
0.27270964 0.15061255 0.2909328 0.3972055 0.17984852 0.40237236 0.23743954 0.3942337
0.034127865 0.04372137 0.044971857 0.1961887 0.099767655 -0.12482895 0.010066572 0.14495665
0.2778614 -0.18551646 0.110878415 -0.09329889 -0.09735112 -0.0034538857 0.05624298 0.21002272
-0.06296346 0.14636815 -0.0041618682 -0.06468301 -0.042228397 0.03420384 -0.11249522 0.1751171
-0.025340466 -0.03663597 0.24260373 -0.08746275 -0.016758513 0.01546902 0.25536326 0.009394668
0.038814463 0.11656297 0.16145517 0.12762617 0.11934069 0.0904791 0.0738501 0.14255369
0.18759875 0.0077450783 0.18654206 0.076479755 0.1563801 0.16790473 0.18854414 0.24217951
0.1805937 0.17248125 0.13380073 0.02629812 0.05833414 0.118929155 -0.009442285 0.007272346
0.074768014 0.20087998 0.024407728 0.1226523 0.18482676 -0.017782887 -0.0011279947 0.04899342
0.03360447 -0.1679074 0.097813606 0.010578892 0.035841484 0.06428168 0.15364031 0.14619704
0.1771795 0.06567223 -0.18975534 -0.1381598 0.031801417 -0.073677465 -0.16010436 0.20136225
-0.11771937 0.057023518 0.082002215 0.16334443 0.19433875 0.11814006 -0.04159064 0.10239924
0.089980185 -0.043844864 0.08666798 -0.09619001 -0.12586556 0.10115785 -0.17713095 -0.1335759
-0.109845355 0.009308501 0.0060530263 0.1139898 0.04451413 -0.043142088 0.118006825 0.09283801
-0.095836766 0.046233494 -0.14484182 -0.01999264 0.07431761 0.19373131 -0.02428891 -0.23766766
-0.04424358 0.034979045 0.008577118 0.030516107 0.038768165 0.12812567 0.10968983 0.04339972
0.089946695 0.011951184 -0.016344648 0.07251392 -0.034628984 -0.05242178 0.06794232 -0.06879271
0.09628723 0.20110099 0.15505739 0.2692503 0.32312515 0.29599985 0.3187619 0.25106597
0.24500585 0.24510321 0.07052634 0.37518877 0.17601715 0.2705611 0.2824488 0.2745852
0.15983443 0.13360602 0.14532046 0.44283673 0.31849453 0.2583427 0.15007237 0.44920936
0.44621637 0.23229474 0.34955359 0.24191926 0.43091935 0.29297298 0.11662008 0.20928752
0.37834364 0.3285101 0.2262395 0.20313288 0.43104282 0.42007893 0.260154 0.10560214
0.22069807 0.35460714 0.16685231 0.23965234 0.5313865 0.30303568 0.23594224 0.16196644
0.34652075 0.20282556 0.25796854 0.4126591 0.04641303 0.27895668 0.17842814 0.17732243
0.1686017 0.19292183 0.36885792 0.24487457 0.32611218 0.4254685 0.28234148 0.22000031
00000000: fefb aa3e 66d3 be3e 3389 9b3e c2b3 bb3e
00000010: 387f 293e 16dd 6e3e 2454 893e c518 773e
00000020: 3a9c f63e 0649 7b3e 03e9 0e3e 4d1c cb3e
00000030: e0e5 053e f77a 7b3e ac37 893e 5204 c23e
00000040: 587b 073e 4382 ae3e 173a a43e cea3 9f3e
00000050: 6a38 d33e 977e bd3e b5a0 173e 2475 963e
00000060: 08e5 0f3f abb2 a43e a14e c13e 64aa ac3e
00000070: f098 c63e 8a43 2b3e 1efd b33e 5a10 003f
00000080: 8485 fa3e 4ccd bc3e 9c54 4c3e 8406 843e
00000090: af42 003f d2bf 7b3e 42a3 b73e 5b70 4a3e
000000a0: d07f bf3e 1b70 d63e 685d 943e df92 093e
000000b0: 4e80 3c3e 9859 aa3e 263f c93e aedb a03e
000000c0: ff33 fe3d 7286 9a3e 42c1 f63e 1f02 c73e
000000d0: f164 813e 9029 543e 2ff4 c43e b9ad 943e
000000e0: 99a0 8b3e 2d3a 1a3e 25f5 943e 855e cb3e
000000f0: 362a 383e c003 ce3e 5a23 733e 00d9 c93e
00000100: a9c9 0b3d 2e15 333d 6934 383d b1e5 483e
00000110: fc52 cc3d 52a6 ffbd 43ee 243c 846f 143e
00000120: d943 8e3e 07f8 3dbe 3914 e33d 7d13 bfbd
00000130: 0660 c7bd 965a 62bb 0a5f 663d 3210 573e
00000140: fdf2 80bd 88e1 153e 4860 88bb 8778 84bd
00000150: aff7 2cbd 5319 0c3d e563 e6bd e651 333e
00000160: cf96 cfbc 990f 16bd 1d6d 783e ac1f b3bd
00000170: 2649 89bc c671 7d3c f9be 823e 18ec 193c
00000180: eafb 1e3d 91b8 ee3d 8154 253e 6fb0 023e
00000190: e468 f43d 1b4d b93d b93e 973d 98f9 113e
000001a0: e319 403e 6dca fd3b e204 3f3e 6ba1 9c3d
000001b0: 1b22 203e 38ef 2b3e b711 413e e8fd 773e
000001c0: 8eed 383e ed9e 303e 0f03 093e 286f d73c
000001d0: c7ef 6e3d 2191 f33d d0b3 1abc dc4c ee3b
000001e0: f91f 993d 7bb3 4d3e b7f2 c73c 2131 fb3d
000001f0: 3a43 3d3e 6bad 91bc 39d9 93ba 53ad 483d
00000200: d7a4 093d ebef 2bbe 8052 c83d 1753 2d3c
00000210: 85ce 123d 1da6 833d e353 1d3e adb4 153e
00000220: 8b6e 353e 2a7f 863d 394f 42be c379 0dbe
00000230: 3442 023d 36e4 96bd 66f2 23be e831 4e3e
00000240: da16 f1bd 7e91 693d c7f0 a73d c343 273e
00000250: bd00 473e 6af3 f13d f25a 2abd b1b6 d13d
00000260: 8847 b83d ac96 33bd fb7e b13d 45ff c4bd
00000270: e7e2 00be d92b cf3d d161 35be 1fc8 08be
00000280: 9af6 e0bd af82 183c 7758 c63b 7c73 e93d
00000290: 7354 363d c2b5 30bd 90ad f13d db21 be3d
000002a0: 1146 c4bd 555f 3d3d 6a51 14be 9bc7 a3bc
000002b0: d533 983d 8061 463e 89f9 c6bc 275f 73be
000002c0: c238 35bd 3046 0f3d 0a87 0c3c eafc f93c
000002d0: 5ecb 1e3d 6033 033e 10a5 e03d e8c3 313d
000002e0: f935 b83d e6ce 433c 36e5 85bc 2e82 943d
000002f0: 1fd7 0dbd 38b8 56bd 5825 8b3d 31e3 8cbd
00000300: 3d32 c53d 6bed 4d3e 5dc7 1e3e 2ddb 893e
00000310: a970 a53e 4b8d 973e c234 a33e b88b 803e
00000320: d0e2 7a3e 56fc 7a3e 1d70 903d be18 c03e
00000330: d73d 343e fc86 8a3e 219d 903e 6e96 8c3e
00000340: a3ab 233e 04d0 083e e3ce 143e 7fbb e23e
00000350: b711 a33e 7f45 843e 92ac 193e c5fe e53e
00000360: 7976 e43e acde 6d3e b0f8 b23e afb9 773e
00000370: 76a1 dc3e 8e00 963e 82d6 ee3d 784f 563e
00000380: 42b6 c13e 7a32 a83e 54ab 673e 1102 503e
00000390: a5b1 dc3e 9614 d73e e832 853e ef45 d83d
000003a0: adfe 613e 118f b53e 55db 2a3e 6c67 753e
000003b0: f208 083f 7e27 9b3e d89a 713e 88da 253e
000003c0: 2b6b b13e 81b1 4f3e 7414 843e 0e48 d33e
000003d0: 971b 3e3d 69d3 8e3e deb5 363e 0394 353e
000003e0: eda5 2c3e 4d8d 453e f2da bc3e 66c0 7a3e
000003f0: 2df8 a63e 02d7 d93e 108f 903e c347 613e

lstm.weight_ih_l1 f4 [256, 64]
-0.04855136 -0.13880652 0.26729703 0.30915475 0.10542396 0.057544548 0.14856397 -0.005017529
0.24249972 0.1847278 0.044858903 -0.14559525 -0.09900443 0.23080178 -0.21684328 0.03498364
-0.024587346 0.19661129 0.01852125 0.2286314 0.12802939 -0.49613634 -0.08035061 0.19276269
0.0011149069 -0.06413585 -0.057738908 -0.1604717 -0.25581485 -0.27125326 -0.2663355 -0.07913915
-0.28597993 0.06150615 -0.13492581 0.020332733 -0.20394374 0.15653388 0.25933498 -0.21619536
0.0026511806 0.034071926 -0.21739528 0.006959178 -0.07508817 0.14692704 0.24254145 -0.1879153
-0.07618988 0.020556984 0.12947352 0.28790677 -0.051293068 0.34547117 0.3217642 0.010559143
0.16372806 -0.24086645 0.11783999 -0.12835516 -0.16103318 -0.31313533 0.08588721 -0.046528235
0.092133544 -0.06756412 0.447606 0.20149666 0.10597853 0.053171393 0.2564803 0.07445339
-0.042325582 -0.04847644 -0.10859216 0.07701829 -0.06557655 0.096369095 -0.062206134 0.22428139
0.052798774 0.2742064 0.266313 0.12880147 -0.11886806 0.0094347065 -0.12204229 0.21855444
0.029842611 -0.22223774 -0.012294814 -0.18431862 -0.2828489 -0.07549498 -0.23628612 0.09766641
-0.173295 0.0737769 -0.0121659115 0.20262262 0.057286147 0.14874588 0.31826445 -0.34145617
-0.04167209 -0.06354295 -0.1714608 -0.20776905 0.24310067 0.12676232 0.14215946 -0.17828143
-0.12667708 0.33721805 0.19016665 -0.034040753 -0.23239079 0.17155708 0.32852963 0.07459581
0.23988062 -0.23254688 0.23227146 -0.023136714 -0.2361416 -0.14176974 -0.3063582 -0.27092722
-0.11763579 -0.19046319 0.2932135 0.15052205 -0.1373617 -0.071759164 0.22716488 0.32031643
0.23834577 -0.12861978 -0.18283072 -0.06489827 0.070942 0.08098852 -0.17524502 0.17353053
-0.108863145 0.0058514467 0.11765096 0.21510263 0.020131346 -0.107064046 -0.17266332 0.14292838
0.12887931 -0.4147533 -0.15229161 0.12135974 -0.12248929 0.06533239 -0.025204072 -0.27534834
-0.22248895 0.18609452 -0.23482668 0.29466105 -0.08357743 -0.07933675 0.2821603 -0.27489188
-0.33167502 -0.12386441 -0.18665606 -0.11680833 0.20761913 0.28567955 0.26466614 -0.23926717
-0.25233215 0.1421462 0.37368378 0.13261053 0.21488036 -0.022856655 0.33628377 0.26189676
0.2864371 -0.26876202 -0.13089545 0.01409337 -0.126376 -0.07276617 0.085922986 -0.1916408
-0.06092237 -0.49134287 -0.074039966 0.23990734 -0.20527801 0.22407532 0.25976273 0.08097074
0.0003930284 0.30740175 -0.60794497 -0.27053756 -0.11711429 0.17995968 -0.47915563 0.46253982
0.010030454 0.50841814 0.33588645 0.0378072 0.26140177 -0.18060233 -0.09033518 0.4014241
-0.092481956 -0.065380946 -0.13774614 -0.24618955 -0.0748757 0.2593235 -0.20441757 -0.13006707
-0.4146123 0.36277983 -0.40959007 -0.018324146 -0.11832304 0.38736004 0.31636623 -0.045889307
-0.34631076 -0.065950386 -0.21462987 -0.13859886 0.09843061 0.08951982 0.08966484 -0.19109716
-0.7048302 0.2668889 0.37253252 0.25662988 0.1774121 0.15098684 0.11578878 0.15493627
0.48033333 -0.007358107 -0.0032275754 -0.27331522 -0.46703923 -0.2523323 0.07150945 -0.30854198
00000000: cadd 46bd 4c23 0ebe 28db 883e 8849 9e3e
00000010: 84e8 d73d d5b3 6b3d 2721 183e 156a a4bb
00000020: d951 783e 4929 3d3e f8bd 373d ec16 15be
00000030: d6c2 cabd 4d57 6c3e 2a0c 5ebe 014b 0f3d
00000040: 676b c9bc 7854 493e e0b9 973c 5a1e 6a3e
00000050: 231a 033e 9505 febe dc8e a4bd 9563 453e
00000060: 1122 923a a859 83bd a27f 6cbd b152 24be
00000070: 2afa 82be b5e1 8abe 205d 88be b513 a2bd
00000080: f66b 92be dfed 7b3d fe29 0abe d590 a63c
00000090: a1d6 50be 6b4a 203e 8ec7 843e 5162 5dbe
000000a0: 6ebf 2d3b 018f 0b3d de9c 5ebe d109 e43b
000000b0: d4c7 99bd 0b74 163e c95c 783e de6c 40be
000000c0: 7109 9cbd 1f67 a83c b594 043e 8468 933e
000000d0: ae18 52bd 99e1 b03e 47be a43e 4100 2d3c
000000e0: 54a8 273e b2a5 76be 1856 f13d 896f 03be
000000f0: e2e5 24be 4653 a0be a2e5 af3d 6494 3ebd
00000100: 83b0 bc3d 0f5f 8abd 9d2c e53e 2455 4e3e
00000110: 460b d93d 3fca 593d 6351 833e 057b 983d
00000120: 975d 2dbd 3b8f 46bd 9165 debd c4bb 9d3d
00000130: 004d 86bd 295d c53d dccb 7ebd 05aa 653e
00000140: 8743 583d c864 8c3e 2d5a 883e 88e4 033e
00000150: 1971 f3bd 0794 1a3c 4ff1 f9bd bccc 5f3e
00000160: 7e78 f43c 4a92 63be 3070 49bc 05be 3cbe
00000170: 92d1 90be 1d9d 9abd fdf4 71be 5405 c83d
00000180: 3f74 31be 5818 973d 8853 47bc 4e7c 4f3e
00000190: e1a4 6a3d d750 183e 8ff3 a23e 58d3 aebe
000001a0: 5ab0 2abd ce22 82bd 6c93 2fbe 69c1 54be
000001b0: 62ef 783e fbcd 013e 4092 113e 688f 36be
000001c0: a3b7 01be d8a7 ac3e 0cbb 423e 516e 0bbd
000001d0: daf7 6dbe a9ac 2f3e 0935 a83e b0c5 983d
000001e0: 44a3 753e c520 6ebe 92d8 6d3e 3589 bdbc
000001f0: 1bcf 71be 162c 11be fbda 9cbe f9b6 8abe
00000200: 08eb f0bd c808 43be 1420 963e 7422 1a3e
00000210: 8ca8 0cbe 78f6 92bd e99d 683e 8400 a43e
00000220: ea10 743e e7b4 03be fa37 3bbe 62e9 84bd
00000230: 0a4a 913d 4fdd a53d 6e73 33be fdb1 313e
00000240: a4f3 debd 7ebd bf3b fdf2 f03d dd43 5c3e
00000250: 7eea a43c 6544 dbbd a7ce 30be d15b 123e
00000260: f0f8 033e 8b5a d4be 55f2 1bbe 758b f83d
00000270: aadb fabd fdcc 853d c578 cebc 75fa 8cbe
00000280: 25d4 63be 908f 3e3e 6876 70be d0dd 963e
00000290: a52a abbd 4e7b a2bd 5177 903e a1be 8cbe
000002a0: 4fd1 a9be a0ac fdbd c422 3fbe 3539 efbd
000002b0: 1c9a 543e 9744 923e 5282 873e 7402 75be
000002c0: ae31 81be c68e 113e 7b53 bf3e 0ecb 073e
000002d0: 9909 5c3e e13d bbbc 632d ac3e 5517 863e
000002e0: e2a7 923e 2d9b 89be 7509 06be e1e7 663c
000002f0: b668 01be 6e06 95bd 64f8 af3d 7c3d 44be
00000300: bc89 79bd 4b91 fbbe 44a2 97bd 45aa 753e
00000310: 6634 52be 0074 653e 9fff 843e fdd3 a53d
00000320: 610f ce39 c363 9d3e 48a2 1bbf e683 8abe
00000330: 9ed9 efbd 5a47 383e e353 f5be 05d2 ec3e
00000340: c656 243c b127 023f 4ff9 ab3e b9db 1a3d
00000350: 74d6 853e d1ef 38be a701 b9bd 7687 cd3e
00000360: 2e67 bdbd 72e6 85bd 530d 0dbe 1d19 7cbe
00000370: 6e58 99bd 0dc6 843e d752 51be 4d30 05be
00000380: 1048 d4be 47be b93e cab5 d1be 851c 96bc
00000390: 5a53 f2bd 0e54 c63e c1fa a13e 6df6 3bbd
000003a0: a54f b1be ff10 87bd efc7 5bbe dcec 0dbe
000003b0: fd95 c93d 2b56 b73d 33a2 b73d f9ae 43be
000003c0: c16f 34bf a9a5 883e 95bc be3e fe64 833e
000003d0: 84ab 353e 4b9c 1a3e ab22 ed3d 9da7 1e3e
000003e0: 40ee f53e 461c f1bb bb85 53bb f9ef 8bbe
000003f0: c41f efbe b331 81be 8c73 923d 37f9 9dbe

lstm.weight_hh_l1 f4 [256, 64]
0.18712479 0.32576743 0.23010594 0.10167092 -0.18796112 -0.17272848 -0.10759591 -0.17132339
-0.39793554 0.027518455 -0.38352728 -0.08404375 -0.2709855 0.19017674 0.27336287 -0.14628534
0.09075643 -0.11079091 0.21594438 -0.3919554 -0.20008254 0.27564907 0.15696357 -0.14348952
0.03882634 -0.07488016 -0.21765116 -0.20201634 -0.08881704 0.09733362 -0.113464944 0.048516084
0.4596832 0.16300713 -0.12572536 -0.18726027 -0.22070426 -0.08245305 0.025252895 -0.08071537
-0.1836998 0.0752281 -0.008456355 -0.29406065 0.12926657 0.24608092 0.22955799 0.009927713
-0.23480351 -0.17975673 -0.27421513 0.017690137 0.023582498 -0.47416553 0.34983099 -0.41703835
-0.046041105 -0.12559684 0.07721042 0.061180092 -0.17196314 0.26920465 0.31318995 -0.4492453
0.10062954 0.31428373 0.07608313 -0.0064127455 -0.15391393 -0.20704094 0.11140304 -0.24314734
-0.58055234 -0.045205534 -0.25090364 0.1800833 -0.18490636 0.22788005 0.2557053 -0.0013702993
-0.058663882 0.018212589 0.46555093 -0.5193799 -0.29529437 0.116279185 0.013122133 -0.23763646
0.00071201555 -0.29693186 -0.21678616 -0.09690106 -0.26517412 0.024141183 -0.085389204 -0.076272205
0.4326216 0.22840787 0.11328041 -0.2769332 -0.20088679 -0.3648527 0.18645656 -0.20565458
-0.120872594 -0.01714441 0.28016773 -0.46145174 0.109949514 0.11704551 -0.2715923 0.0006498113
-0.3579698 -0.1201158 -0.29860798 0.06399273 0.20076211 -0.411792 0.05409625 -0.273503
-0.0032942668 -0.2731353 -0.053716205 0.0906465 0.1603936 0.2162989 0.27356005 -0.29412103
0.19937171 0.2260932 0.092421904 0.081358135 -0.2971132 -0.55512136 0.26694286 -0.2078339
-0.2756057 0.21682857 0.22415191 0.25751686 -0.4052849 0.48945466 0.19323426 -0.13770698
0.13624343 -0.61638135 0.16940875 -0.33494303 0.40861276 0.36029372 0.3316374 -0.27936324
0.018697707 -0.48890787 -0.37162197 -0.18601346 -0.24656337 0.19970441 -0.49062508 0.5023846
0.20596729 0.247455 -0.103981115 -0.2322012 -0.11824567 -0.20900676 0.10722648 0.0980885
0.16808254 0.14213173 0.09381675 -0.2699446 -0.15639327 0.21603008 -0.054567385 0.26666772
-0.21768205 -0.35721162 -0.32223317 0.29663607 0.009792773 0.075231425 0.23719774 -0.09505081
-0.5305685 -0.018235916 0.058703747 -0.46298444 -0.029741643 -0.08182723 0.255594 -0.2782879
0.3705803 0.27529404 0.33856183 -0.06566752 -0.063003175 -0.059933085 0.18857239 -0.33073604
-0.24893157 -0.13011794 0.15696187 0.25983873 -0.570204 0.62472653 0.4101062 -0.09026439
0.18954894 -0.45826915 -0.01605355 -0.16045253 0.15673731 0.28430587 0.11206183 0.068216346
0.16949533 -0.7390843 -0.5875061 0.050751038 -0.68908256 0.4136058 -0.51674855 0.5281102
0.6157716 0.7325314 -0.10985931 -0.22219786 -0.10506494 -0.54914093 0.18266363 0.0032549887
0.44842458 0.022689253 0.058843784 -0.40890902 -0.118829235 0.0025153987 0.26599413 0.28730118
-0.32035124 -0.63371754 -0.26734334 0.32792124 -0.09695794 -0.27157637 0.3158757 -0.48394814
-0.48097762 -0.19470994 -0.0129972305 -0.2665638 -0.10150315 0.14306246 0.27222124 -0.45320883
00000000: a49d 3f3e fdca a63e e4a0 6b3e d838 d03d
00000010: e178 40be bcdf 30be 3f5b dcbd 666f 2fbe
00000020: 35be cbbe 626e e13c b05d c4be 211f acbd
00000030: 9dbe 8abe b1bd 423e 38f6 8b3e d3cb 15be
00000040: 82de b93d 58e6 e2bd 8620 5d3e 61ae c8be
00000050: 70e2 4cbe e021 8d3e 0fbb 203e ebee 12be
00000060: 5e08 1f3d c55a 99bd f2df 5ebe 5fdd 4ebe
00000070: b5e5 b5bd d956 c73d 4f60 e8bd cdb8 463d
00000080: 995b eb3e 57eb 263e 26be 00be 28c1 3fbe
00000090: 4c00 62be 25dd a8bd 29df ce3c 1a4e a5bd
000000a0: cd1b 3cbe 3111 9a3d 868c 0abc 1e8f 96be
000000b0: 755e 043e a3fc 7b3e 4011 6b3e d9a7 223c
000000c0: 5570 70be 2612 38be ed65 8cbe e8ea 903c
000000d0: 1530 c13c d3c5 f2be 0c1d b33e 0d86 d5be
000000e0: 9995 3cbd 759c 00be 7f20 9e3d fa97 7a3d
000000f0: 1b17 30be 31d5 893e 6f5a a03e 7b03 e6be
00000100: dc16 ce3d cce9 a03e 79d1 9b3d 0222 d2bb
00000110: 9d9b 1dbe 8a02 54be 4727 e43d 9efb 78be
00000120: 149f 14bf 7029 39bd 7176 80be c267 383e
00000130: 1858 3dbe 6359 693e ceeb 823e 9d9b b3ba
00000140: 8a49 70bd 9132 953c b15c ee3e 15f6 04bf
00000150: d330 97be c823 ee3d 37fe 563c f956 73be
00000160: 8ea6 3a3a 7407 98be 31fd 5dbe 1074 c6bd
00000170: e7c4 87be bbc3 c53c 89e0 aebd 9a34 9cbd
00000180: 9480 dd3e c1e3 693e 8fff e73d 30ca 8dbe
00000190: 44b5 4dbe f9cd babe 78ee 3e3e 1d97 52be
000001a0: 0d8c f7bd 6f72 8cbc 2572 8f3e 6743 ecbe
000001b0: 362d e13d 8eb5 ef3d 250e 8bbe 1958 2a3a
000001c0: d147 b7be 46ff f5bd 25e3 98be 9f0e 833d
000001d0: 9594 4d3e 67d6 d2be 0894 5d3d 9608 8cbe
000001e0: a0e4 57bb 64d8 8bbe 8605 5cbd dfa4 b93d
000001f0: 383e 243e 757d 5d3e 1010 8c3e 0897 96be
00000200: 1928 4c3e fa84 673e b247 bd3d 189f a63d
00000210: 391f 98be 6f1c 0ebf bcac 883e 69d2 54be
00000220: 311c 8dbe 4f08 5e3e 1488 653e 40d9 833e
00000230: 8181 cfbe cd99 fa3e 34df 453e 0f03 0dbe
00000240: 6683 0b3e 2bcb 1dbf 7d79 2d3e a77d abbe
00000250: b135 d13e 6b78 b83e 61cc a93e b308 8fbe
00000260: ef2b 993c 2252 fabe 3c45 bebe 507a 3ebe
00000270: 1c7b 7cbe 507f 4c3e 3633 fbbe 479c 003f
00000280: 17e9 523e d864 7d3e 0df4 d4bd 27c6 6dbe
00000290: c92a f2bd de05 56be 8f99 db3d a0e2 c83d
000002a0: d41d 2c3e fb8a 113e ff22 c03d 2e36 8abe
000002b0: 8f25 20be fd36 5d3e 0d82 5fbd ac88 883e
000002c0: 0be8 5ebe 71e4 b6be bffb a4be afe0 973e
000002d0: de71 203c ef12 9a3d f7e3 723e 00aa c2bd
000002e0: 56d3 07bf 7d63 95bc 5773 703d 4c0c edbe
000002f0: bfa4 f3bc 0995 a7bd 37dd 823e c07b 8ebe
00000300: b3bc bd3e 57f3 8c3e fa57 ad3e b17c 86bd
00000310: cf07 81bd 657c 75bd 1f19 413e 3c56 a9be
00000320: ebe7 7ebe a33d 05be 9dba 203e 9509 853e
00000330: e4f8 11bf 14ee 1f3f 71f9 d13e 89dc b8bd
00000340: 1e19 423e 41a2 eabe bc82 83bc ab4d 24be
00000350: bf7f 203e 8a90 913e ac80 e53d 03b5 8b3d
00000360: 2f90 2d3e a134 3dbf cd66 16bf 52e0 4f3d
00000370: b767 30bf 24c4 d33e a249 04bf 3b32 073f
00000380: 35a3 1d3f 2e87 3b3f ebfd e0bd d687 63be
00000390: 4a2c d7bd 8094 0cbf 2d0c 3b3e a651 553b
000003a0: e897 e53e d0de b93c 2e06 713d 865c d1be
000003b0: be5c f3bd 63d9 243b 6230 883e 2419 933e
000003c0: 1405 a4be 503b 22bf 3ae1 88be 4be5 a73e
000003d0: e291 c6bd 0f0c 8bbe 76ba a13e 0dc8 f7be
000003e0: b342 f6be 0b62 47be 56f2 54bc 0d7b 88be
000003f0: e2e0 cfbd f77e 123e 9560 8b3e fd0a e8be

lstm.bias_ih_l1 f4 [256]
0.20825517 0.26171863 0.4924865 0.46070173 0.33201188 0.3247555 0.09455969 0.2907632
0.3212478 0.21290696 0.36922675 0.401364 0.20449226 0.16165228 0.4027757 0.09757787
0.25146812 0.12333193 0.21611837 0.2564206 0.17902333 0.0705359 0.08113232 0.3021629
0.23344675 0.1618779 0.22144106 -0.018780066 0.41787407 0.41339454 0.328325 -0.005319419
0.36527607 0.088384084 0.33041734 0.08287569 0.28038746 0.28298718 0.3517809 0.32469642
0.29642949 0.1954178 0.20629252 0.5056738 0.14937253 0.1391538 0.1460728 0.38747096
0.264505 0.4619752 0.14525387 0.28688133 0.06604189 -0.034755837 0.19361208 0.4503021
0.225605 0.08990927 0.12968686 0.0755365 0.37686265 0.4942515 0.2813676 0.32155398
-0.070557125 0.04804122 0.040103845 -0.03582411 -0.037772167 -0.010181622 0.056549583 -0.0710335
0.12546918 -0.096633025 0.13859545 -0.10148948 0.0037350687 -0.053737435 0.19801037 -0.1229697
-0.09587453 -0.11336883 -0.09689366 0.03967855 -0.11841237 0.037110325 -0.04437578 0.02647424
-0.07742444 0.30400237 -0.034628183 0.032356378 0.27542576 0.24326627 0.075910315 0.07667693
0.34551966 0.08574362 -0.016493984 0.088804126 0.05161628 0.10045828 -0.12712775 0.030000957
0.22562204 0.0040602246 -0.04017226 0.12333628 -0.0588755 -0.046946283 -0.025996512 0.027094623
0.08236529 0.038516246 -0.0149829425 0.104891546 0.17709146 -0.07211924 0.1096962 0.1874911
0.17699899 -0.0092463875 -0.066965066 -0.12401472 0.087616585 -0.09058353 -0.12831728 -0.016176468
-0.1297281 0.04596086 0.15084442 0.14006124 -0.051513355 -0.06302106 0.06324932 -0.114555396
0.013357765 -0.006909926 -0.052039254 0.065854594 -0.20297174 0.22659914 0.21341439 -0.098276995
0.08902377 -0.06088485 0.09793793 -0.12760472 0.044549827 -0.018242635 0.14892274 -0.06479552
-0.0009780565 -0.15969059 -0.19362974 -0.022107746 -0.1668221 0.13753013 -0.10764366 0.00096131244
0.23669343 0.20896292 0.11090803 0.05991135 -0.10506701 -0.09046516 0.015424606 -0.018437816
0.028929051 -0.027042342 0.106533505 -0.06967295 -0.11464624 -0.011665585 0.008368553 0.10459922
-0.08953549 -0.18936154 0.022904541 0.00070138276 0.123433374 -0.13308789 0.023443444 -0.06819847
0.079704106 0.06260413 0.05293014 -0.11495651 0.02530698 0.01845818 0.13309461 -0.055452634
0.15099627 0.055108137 0.10064227 0.4398435 0.21974173 0.43167397 0.33319932 0.120855965
0.27250308 0.42269138 0.21209535 0.245475 0.14415027 0.14678638 -7.4993906e-05 0.35397536
0.35152018 0.06693108 0.14301772 0.13013382 0.22358453 0.10011726 0.19645657 0.21658923
0.16281258 0.12724414 0.22811551 0.082602054 -0.017777173 0.13093764 0.11502043 0.20938052
0.14631481 0.065482885 0.26904452 0.0936217 0.13418356 0.24544652 0.3483364 0.29336372
0.14863019 0.29911932 0.110199004 0.15448488 0.25941035 0.15828273 0.21112584 0.14011694
-0.014160166 0.27634394 0.18132302 0.027963595 0.08897596 0.11601226 0.28090525 0.1659919
0.19944094 0.13668242 0.18619303 0.30077925 0.17436782 0.37461817 0.016084958 0.044964924
00000000: d840 553e fcff 853e 3127 fc3e 19e1 eb3e
00000010: 76fd a93e 5a46 a63e 83a8 c13d eade 943e
00000020: 977a a43e 4804 5a3e 4a0b bd3e 957f cd3e
00000030: 6b66 513e 2d88 253e 9e38 ce3e e8d6 c73d
00000040: 6ec0 803e 7395 fc3d 224e 5d3e 9049 833e
00000050: e451 373e 2075 903d b428 a63d 18b5 9a3e
00000060: aa0c 6f3e 52c3 253e 72c1 623e a7d8 99bc
00000070: 97f3 d53e 73a8 d33e 371a a83e 854e aebb
00000080: 7705 bb3e b702 b53d 762c a93e bbba a93d
00000090: f28e 8f3e b2e3 903e a01c b43e 9c3e a63e
000000a0: 9bc5 973e 9b1b 483e 593e 533e d773 013f
000000b0: 1df5 183e 557e 0e3e 1c94 153e 9862 c63e
000000c0: 336d 873e 0388 ec3e 6ebd 143e 1ce2 923e
000000d0: f840 873d 235c 0ebd 3f42 463e ff8d e63e
000000e0: ff04 673e 5a22 b83d a2cc 043e e1b2 9a3d
000000f0: 24f4 c03e 880e fd3e 6a0f 903e b9a2 a43e
00000100: 4180 90bd dfc6 443d ee43 243d 4dbc 12bd
00000110: fdb6 1abd d1d0 26bc 89a0 673d 037a 91bd
00000120: fe7a 003e 89e7 c5bd f7eb 0d3e b7d9 cfbd
00000130: 0ec8 743b c91b 5cbd 3bc3 4a3e 8ad7 fbbd
00000140: de59 c4bd eb2d e8bd 2f70 c6bd fa85 223d
00000150: 2f82 f2bd ff00 183d 61c3 35bd 81e0 d83c
00000160: b490 9ebd 33a6 9b3e 48d6 0dbd 1f88 043d
00000170: 9b04 8d3e cb1a 793e de76 9b3d cb08 9d3d
00000180: f4e7 b03e 5a9a af3d 641e 87bc f0de b53d
00000190: 986b 533d 12bd cd3d c72d 02be 91c4 f53c
000001a0: 7709 673e a20b 853b ab8b 24bd bb97 fc3d
000001b0: 7027 71bd bf4a 40bd a3f6 d4bc 8bf5 dd3c
000001c0: 22af a83d 36c3 1d3d 047b 75bc 61d1 d63d
000001d0: 7757 353e 41b3 93bd 67a8 e03d abfd 3f3e
000001e0: 393f 353e 297e 17bc fb24 89bd 6efb fdbd
000001f0: 5370 b33d dc83 b9bd 9b65 03be 8384 84bc
00000200: 71d7 04be 7441 3c3d f676 1a3e 376c 0f3e
00000210: abff 52bd 2f11 81bd dc88 813d 059c eabd
00000220: 87da 5a3c a96c e2bb 1d27 55bd c6de 863d
00000230: d3d7 4fbe 9b09 683e 4d89 5a3e 7345 c9bd
00000240: 1852 b63d 6462 79bd ae93 c83d d0aa 02be
00000250: e179 363d 9471 95bc 347f 183e 83b3 84bd
00000260: 2132 80ba ee85 23be e046 46be 4e1b b5bc
00000270: 6ad3 2abe b3d4 0c3e 4774 dcbd 9600 7c3a
00000280: c35f 723e 60fa 553e c023 e33d 9b65 753d
00000290: 5f2d d7bd cc45 b9bd 7db7 7c3c e70a 97bc
000002a0: 9efc ec3c e787 ddbc 3d2e da3d b1b0 8ebd
000002b0: a6cb eabd 0321 3fbc 411c 093c 1e38 d63d
000002c0: 625e b7bd fee7 41be 4ea2 bb3c 00dd 373a
000002d0: a3ca fc3d 3148 08be 770c c03c a4ab 8bbd
000002e0: e83b a33d 9836 803d 46cd 583d 526e ebbd
000002f0: 9550 cf3c 9c35 973c f449 083e 4d22 63bd
00000300: c49e 1a3e 12b9 613d 891d ce3d 2b33 e13e
00000310: fa03 613e 5f04 dd3e 1a99 aa3e 5583 f73d
00000320: 8685 8b3e 016b d83e 862f 593e cc5d 7b3e
00000330: 219c 133e 2b4f 163e 0c46 9db8 423c b53e
00000340: 74fa b33e 2913 893d 3d73 123e cd41 053e
00000350: 58f3 643e 470a cd3d e92b 493e 91c9 5d3e
00000360: 57b8 263e 4a4c 023e 1d97 693e 442b a93d
00000370: 6fa1 91bc 8414 063e d58f eb3d d967 563e
00000380: 8dd3 153e e41b 863d 34c0 893e bcbc bf3d
00000390: 6a67 093e 5556 7b3e 2659 b23e c533 963e
000003a0: 8332 183e 2b26 993e 04b0 e13d 4931 1e3e
000003b0: 6fd1 843e de14 223e 5f31 583e d17a 0f3e
000003c0: 0a00 68bc f47c 8d3e beac 393e e913 e53c
000003d0: 0739 b63d d697 ed3d d0d2 8f3e c8f9 293e
000003e0: 3f3a 4c3e 7af6 0b3e 63a9 3e3e bdff 993e
000003f0: 7a8d 323e f4cd bf3e 9ac4 833c 242d 383d
